program(1.0)
[buildInfo = dict<tensor<string, []>, tensor<string, []>>({{"coremlc-component-MIL", "3520.4.1"}, {"coremlc-version", "3520.5.1"}, {"coremltools-component-torch", "2.11.0"}, {"coremltools-source-dialect", "TorchScript"}, {"coremltools-version", "8.2"}})]
{
    func main<ios16>(tensor<fp16, [1, 512, 128]> desc0, tensor<fp16, [1, 512, 128]> desc1, tensor<fp16, [1, 512, 2]> kpts0, tensor<fp16, [1, 512, 2]> kpts1, tensor<fp16, [1, 512]> oris0, tensor<fp16, [1, 512]> oris1, tensor<fp16, [1, 512]> scales0, tensor<fp16, [1, 512]> scales1) {
            tensor<int32, []> var_29 = const()[name = tensor<string, []>("op_29"), val = tensor<int32, []>(2)];
            tensor<int32, []> var_30 = const()[name = tensor<string, []>("op_30"), val = tensor<int32, []>(1)];
            tensor<int32, []> var_31 = const()[name = tensor<string, []>("op_31"), val = tensor<int32, []>(-1)];
            tensor<fp16, [1, 1, 2]> var_65_to_fp16 = const()[name = tensor<string, []>("op_65_to_fp16"), val = tensor<fp16, [1, 1, 2]>([[[0x1.ep+8, 0x1.68p+8]]])];
            tensor<fp16, [1, 512, 2]> var_67_cast_fp16 = sub(x = kpts0, y = var_65_to_fp16)[name = tensor<string, []>("op_67_cast_fp16")];
            tensor<fp16, [1, 1, 1]> _inversed_70_y_0_to_fp16 = const()[name = tensor<string, []>("_inversed_70_y_0_to_fp16"), val = tensor<fp16, [1, 1, 1]>([[[0x1.11p-9]]])];
            tensor<fp16, [1, 512, 2]> _inversed_70_cast_fp16 = mul(x = var_67_cast_fp16, y = _inversed_70_y_0_to_fp16)[name = tensor<string, []>("_inversed_70_cast_fp16")];
            tensor<fp16, [1, 1, 2]> var_79_to_fp16 = const()[name = tensor<string, []>("op_79_to_fp16"), val = tensor<fp16, [1, 1, 2]>([[[0x1.ep+8, 0x1.68p+8]]])];
            tensor<fp16, [1, 512, 2]> var_81_cast_fp16 = sub(x = kpts1, y = var_79_to_fp16)[name = tensor<string, []>("op_81_cast_fp16")];
            tensor<fp16, [1, 1, 1]> _inversed_84_y_0_to_fp16 = const()[name = tensor<string, []>("_inversed_84_y_0_to_fp16"), val = tensor<fp16, [1, 1, 1]>([[[0x1.11p-9]]])];
            tensor<fp16, [1, 512, 2]> _inversed_84_cast_fp16 = mul(x = var_81_cast_fp16, y = _inversed_84_y_0_to_fp16)[name = tensor<string, []>("_inversed_84_cast_fp16")];
            tensor<int32, [1]> var_86_axes_0 = const()[name = tensor<string, []>("op_86_axes_0"), val = tensor<int32, [1]>([-1])];
            tensor<fp16, [1, 512, 1]> var_86_cast_fp16 = expand_dims(axes = var_86_axes_0, x = scales0)[name = tensor<string, []>("op_86_cast_fp16")];
            tensor<int32, [1]> var_87_axes_0 = const()[name = tensor<string, []>("op_87_axes_0"), val = tensor<int32, [1]>([-1])];
            tensor<fp16, [1, 512, 1]> var_87_cast_fp16 = expand_dims(axes = var_87_axes_0, x = oris0)[name = tensor<string, []>("op_87_cast_fp16")];
            tensor<bool, []> input_5_interleave_0 = const()[name = tensor<string, []>("input_5_interleave_0"), val = tensor<bool, []>(false)];
            tensor<fp16, [1, 512, 4]> input_5_cast_fp16 = concat(axis = var_31, interleave = input_5_interleave_0, values = (_inversed_70_cast_fp16, var_86_cast_fp16, var_87_cast_fp16))[name = tensor<string, []>("input_5_cast_fp16")];
            tensor<int32, [1]> var_90_axes_0 = const()[name = tensor<string, []>("op_90_axes_0"), val = tensor<int32, [1]>([-1])];
            tensor<fp16, [1, 512, 1]> var_90_cast_fp16 = expand_dims(axes = var_90_axes_0, x = scales1)[name = tensor<string, []>("op_90_cast_fp16")];
            tensor<int32, [1]> var_91_axes_0 = const()[name = tensor<string, []>("op_91_axes_0"), val = tensor<int32, [1]>([-1])];
            tensor<fp16, [1, 512, 1]> var_91_cast_fp16 = expand_dims(axes = var_91_axes_0, x = oris1)[name = tensor<string, []>("op_91_cast_fp16")];
            tensor<bool, []> input_7_interleave_0 = const()[name = tensor<string, []>("input_7_interleave_0"), val = tensor<bool, []>(false)];
            tensor<fp16, [1, 512, 4]> input_7_cast_fp16 = concat(axis = var_31, interleave = input_7_interleave_0, values = (_inversed_84_cast_fp16, var_90_cast_fp16, var_91_cast_fp16))[name = tensor<string, []>("input_7_cast_fp16")];
            tensor<fp16, [256, 128]> lg_input_proj_weight_to_fp16 = const()[name = tensor<string, []>("lg_input_proj_weight_to_fp16"), val = tensor<fp16, [256, 128]>(BLOBFILE(path = tensor<string, []>("@model_path/weights/weight.bin"), offset = tensor<uint64, []>(64)))];
            tensor<fp16, [256]> lg_input_proj_bias_to_fp16 = const()[name = tensor<string, []>("lg_input_proj_bias_to_fp16"), val = tensor<fp16, [256]>(BLOBFILE(path = tensor<string, []>("@model_path/weights/weight.bin"), offset = tensor<uint64, []>(65664)))];
            tensor<fp16, [1, 512, 256]> linear_0_cast_fp16 = linear(bias = lg_input_proj_bias_to_fp16, weight = lg_input_proj_weight_to_fp16, x = desc0)[name = tensor<string, []>("linear_0_cast_fp16")];
            tensor<fp16, [1, 512, 256]> linear_1_cast_fp16 = linear(bias = lg_input_proj_bias_to_fp16, weight = lg_input_proj_weight_to_fp16, x = desc1)[name = tensor<string, []>("linear_1_cast_fp16")];
            tensor<fp16, [32, 4]> lg_posenc_Wr_weight_to_fp16 = const()[name = tensor<string, []>("lg_posenc_Wr_weight_to_fp16"), val = tensor<fp16, [32, 4]>(BLOBFILE(path = tensor<string, []>("@model_path/weights/weight.bin"), offset = tensor<uint64, []>(66240)))];
            tensor<fp16, [32]> linear_2_bias_0_to_fp16 = const()[name = tensor<string, []>("linear_2_bias_0_to_fp16"), val = tensor<fp16, [32]>(BLOBFILE(path = tensor<string, []>("@model_path/weights/weight.bin"), offset = tensor<uint64, []>(66560)))];
            tensor<fp16, [1, 512, 32]> linear_2_cast_fp16 = linear(bias = linear_2_bias_0_to_fp16, weight = lg_posenc_Wr_weight_to_fp16, x = input_5_cast_fp16)[name = tensor<string, []>("linear_2_cast_fp16")];
            tensor<fp16, [1, 512, 32]> cosines_1_cast_fp16 = cos(x = linear_2_cast_fp16)[name = tensor<string, []>("cosines_1_cast_fp16")];
            tensor<fp16, [1, 512, 32]> sines_1_cast_fp16 = sin(x = linear_2_cast_fp16)[name = tensor<string, []>("sines_1_cast_fp16")];
            tensor<int32, []> var_110_axis_0 = const()[name = tensor<string, []>("op_110_axis_0"), val = tensor<int32, []>(0)];
            tensor<fp16, [2, 1, 512, 32]> var_110_cast_fp16 = stack(axis = var_110_axis_0, values = (cosines_1_cast_fp16, sines_1_cast_fp16))[name = tensor<string, []>("op_110_cast_fp16")];
            tensor<int32, [1]> emb_1_axes_0 = const()[name = tensor<string, []>("emb_1_axes_0"), val = tensor<int32, [1]>([-3])];
            tensor<fp16, [2, 1, 1, 512, 32]> emb_1_cast_fp16 = expand_dims(axes = emb_1_axes_0, x = var_110_cast_fp16)[name = tensor<string, []>("emb_1_cast_fp16")];
            tensor<int32, [5]> transpose_0_perm_0 = const()[name = tensor<string, []>("transpose_0_perm_0"), val = tensor<int32, [5]>([4, 0, 1, 2, 3])];
            tensor<int32, [5]> tile_0_reps_0 = const()[name = tensor<string, []>("tile_0_reps_0"), val = tensor<int32, [5]>([2, 1, 1, 1, 1])];
            tensor<fp16, [32, 2, 1, 1, 512]> transpose_0_cast_fp16 = transpose(perm = transpose_0_perm_0, x = emb_1_cast_fp16)[name = tensor<string, []>("transpose_205")];
            tensor<fp16, [64, 2, 1, 1, 512]> tile_0_cast_fp16 = tile(reps = tile_0_reps_0, x = transpose_0_cast_fp16)[name = tensor<string, []>("tile_0_cast_fp16")];
            tensor<int32, [3]> reshape_49_shape_0 = const()[name = tensor<string, []>("reshape_49_shape_0"), val = tensor<int32, [3]>([2, 32, 1024])];
            tensor<fp16, [2, 32, 1024]> reshape_49_cast_fp16 = reshape(shape = reshape_49_shape_0, x = tile_0_cast_fp16)[name = tensor<string, []>("reshape_49_cast_fp16")];
            tensor<int32, [3]> transpose_60_perm_0 = const()[name = tensor<string, []>("transpose_60_perm_0"), val = tensor<int32, [3]>([1, 0, 2])];
            tensor<int32, [5]> reshape_50_shape_0 = const()[name = tensor<string, []>("reshape_50_shape_0"), val = tensor<int32, [5]>([-1, 2, 1, 1, 512])];
            tensor<fp16, [32, 2, 1024]> transpose_60_cast_fp16 = transpose(perm = transpose_60_perm_0, x = reshape_49_cast_fp16)[name = tensor<string, []>("transpose_204")];
            tensor<fp16, [64, 2, 1, 1, 512]> reshape_50_cast_fp16 = reshape(shape = reshape_50_shape_0, x = transpose_60_cast_fp16)[name = tensor<string, []>("reshape_50_cast_fp16")];
            tensor<int32, [5]> freqs_1_perm_0 = const()[name = tensor<string, []>("freqs_1_perm_0"), val = tensor<int32, [5]>([1, 2, 3, 4, 0])];
            tensor<fp16, [32]> linear_3_bias_0_to_fp16 = const()[name = tensor<string, []>("linear_3_bias_0_to_fp16"), val = tensor<fp16, [32]>(BLOBFILE(path = tensor<string, []>("@model_path/weights/weight.bin"), offset = tensor<uint64, []>(66688)))];
            tensor<fp16, [1, 512, 32]> linear_3_cast_fp16 = linear(bias = linear_3_bias_0_to_fp16, weight = lg_posenc_Wr_weight_to_fp16, x = input_7_cast_fp16)[name = tensor<string, []>("linear_3_cast_fp16")];
            tensor<fp16, [1, 512, 32]> cosines_cast_fp16 = cos(x = linear_3_cast_fp16)[name = tensor<string, []>("cosines_cast_fp16")];
            tensor<fp16, [1, 512, 32]> sines_cast_fp16 = sin(x = linear_3_cast_fp16)[name = tensor<string, []>("sines_cast_fp16")];
            tensor<int32, []> var_119_axis_0 = const()[name = tensor<string, []>("op_119_axis_0"), val = tensor<int32, []>(0)];
            tensor<fp16, [2, 1, 512, 32]> var_119_cast_fp16 = stack(axis = var_119_axis_0, values = (cosines_cast_fp16, sines_cast_fp16))[name = tensor<string, []>("op_119_cast_fp16")];
            tensor<int32, [1]> emb_axes_0 = const()[name = tensor<string, []>("emb_axes_0"), val = tensor<int32, [1]>([-3])];
            tensor<fp16, [2, 1, 1, 512, 32]> emb_cast_fp16 = expand_dims(axes = emb_axes_0, x = var_119_cast_fp16)[name = tensor<string, []>("emb_cast_fp16")];
            tensor<int32, [5]> transpose_2_perm_0 = const()[name = tensor<string, []>("transpose_2_perm_0"), val = tensor<int32, [5]>([4, 0, 1, 2, 3])];
            tensor<int32, [5]> tile_1_reps_0 = const()[name = tensor<string, []>("tile_1_reps_0"), val = tensor<int32, [5]>([2, 1, 1, 1, 1])];
            tensor<fp16, [32, 2, 1, 1, 512]> transpose_2_cast_fp16 = transpose(perm = transpose_2_perm_0, x = emb_cast_fp16)[name = tensor<string, []>("transpose_202")];
            tensor<fp16, [64, 2, 1, 1, 512]> tile_1_cast_fp16 = tile(reps = tile_1_reps_0, x = transpose_2_cast_fp16)[name = tensor<string, []>("tile_1_cast_fp16")];
            tensor<int32, [3]> reshape_51_shape_0 = const()[name = tensor<string, []>("reshape_51_shape_0"), val = tensor<int32, [3]>([2, 32, 1024])];
            tensor<fp16, [2, 32, 1024]> reshape_51_cast_fp16 = reshape(shape = reshape_51_shape_0, x = tile_1_cast_fp16)[name = tensor<string, []>("reshape_51_cast_fp16")];
            tensor<int32, [3]> transpose_61_perm_0 = const()[name = tensor<string, []>("transpose_61_perm_0"), val = tensor<int32, [3]>([1, 0, 2])];
            tensor<int32, [5]> reshape_52_shape_0 = const()[name = tensor<string, []>("reshape_52_shape_0"), val = tensor<int32, [5]>([-1, 2, 1, 1, 512])];
            tensor<fp16, [32, 2, 1024]> transpose_61_cast_fp16 = transpose(perm = transpose_61_perm_0, x = reshape_51_cast_fp16)[name = tensor<string, []>("transpose_201")];
            tensor<fp16, [64, 2, 1, 1, 512]> reshape_52_cast_fp16 = reshape(shape = reshape_52_shape_0, x = transpose_61_cast_fp16)[name = tensor<string, []>("reshape_52_cast_fp16")];
            tensor<int32, [5]> freqs_perm_0 = const()[name = tensor<string, []>("freqs_perm_0"), val = tensor<int32, [5]>([1, 2, 3, 4, 0])];
            tensor<fp16, [768, 256]> lg_transformers_0_self_attn_Wqkv_weight_to_fp16 = const()[name = tensor<string, []>("lg_transformers_0_self_attn_Wqkv_weight_to_fp16"), val = tensor<fp16, [768, 256]>(BLOBFILE(path = tensor<string, []>("@model_path/weights/weight.bin"), offset = tensor<uint64, []>(66816)))];
            tensor<fp16, [768]> lg_transformers_0_self_attn_Wqkv_bias_to_fp16 = const()[name = tensor<string, []>("lg_transformers_0_self_attn_Wqkv_bias_to_fp16"), val = tensor<fp16, [768]>(BLOBFILE(path = tensor<string, []>("@model_path/weights/weight.bin"), offset = tensor<uint64, []>(460096)))];
            tensor<fp16, [1, 512, 768]> linear_4_cast_fp16 = linear(bias = lg_transformers_0_self_attn_Wqkv_bias_to_fp16, weight = lg_transformers_0_self_attn_Wqkv_weight_to_fp16, x = linear_0_cast_fp16)[name = tensor<string, []>("linear_4_cast_fp16")];
            tensor<int32, [5]> concat_4 = const()[name = tensor<string, []>("concat_4"), val = tensor<int32, [5]>([1, 512, 4, -1, 3])];
            tensor<fp16, [1, 512, 4, 64, 3]> var_131_cast_fp16 = reshape(shape = concat_4, x = linear_4_cast_fp16)[name = tensor<string, []>("op_131_cast_fp16")];
            tensor<int32, [5]> qkv_1_perm_0 = const()[name = tensor<string, []>("qkv_1_perm_0"), val = tensor<int32, [5]>([0, 2, 1, 3, 4])];
            tensor<int32, [5]> t_1_begin_0 = const()[name = tensor<string, []>("t_1_begin_0"), val = tensor<int32, [5]>([0, 0, 0, 0, 0])];
            tensor<int32, [5]> t_1_end_0 = const()[name = tensor<string, []>("t_1_end_0"), val = tensor<int32, [5]>([1, 4, 512, 64, 1])];
            tensor<bool, [5]> t_1_end_mask_0 = const()[name = tensor<string, []>("t_1_end_mask_0"), val = tensor<bool, [5]>([true, true, true, true, false])];
            tensor<bool, [5]> t_1_squeeze_mask_0 = const()[name = tensor<string, []>("t_1_squeeze_mask_0"), val = tensor<bool, [5]>([false, false, false, false, true])];
            tensor<fp16, [1, 4, 512, 64, 3]> qkv_1_cast_fp16 = transpose(perm = qkv_1_perm_0, x = var_131_cast_fp16)[name = tensor<string, []>("transpose_199")];
            tensor<fp16, [1, 4, 512, 64]> t_1_cast_fp16 = slice_by_index(begin = t_1_begin_0, end = t_1_end_0, end_mask = t_1_end_mask_0, squeeze_mask = t_1_squeeze_mask_0, x = qkv_1_cast_fp16)[name = tensor<string, []>("t_1_cast_fp16")];
            tensor<int32, [5]> t_3_begin_0 = const()[name = tensor<string, []>("t_3_begin_0"), val = tensor<int32, [5]>([0, 0, 0, 0, 1])];
            tensor<int32, [5]> t_3_end_0 = const()[name = tensor<string, []>("t_3_end_0"), val = tensor<int32, [5]>([1, 4, 512, 64, 2])];
            tensor<bool, [5]> t_3_end_mask_0 = const()[name = tensor<string, []>("t_3_end_mask_0"), val = tensor<bool, [5]>([true, true, true, true, false])];
            tensor<bool, [5]> t_3_squeeze_mask_0 = const()[name = tensor<string, []>("t_3_squeeze_mask_0"), val = tensor<bool, [5]>([false, false, false, false, true])];
            tensor<fp16, [1, 4, 512, 64]> t_3_cast_fp16 = slice_by_index(begin = t_3_begin_0, end = t_3_end_0, end_mask = t_3_end_mask_0, squeeze_mask = t_3_squeeze_mask_0, x = qkv_1_cast_fp16)[name = tensor<string, []>("t_3_cast_fp16")];
            tensor<int32, [5]> v_1_begin_0 = const()[name = tensor<string, []>("v_1_begin_0"), val = tensor<int32, [5]>([0, 0, 0, 0, 2])];
            tensor<int32, [5]> v_1_end_0 = const()[name = tensor<string, []>("v_1_end_0"), val = tensor<int32, [5]>([1, 4, 512, 64, 3])];
            tensor<bool, [5]> v_1_end_mask_0 = const()[name = tensor<string, []>("v_1_end_mask_0"), val = tensor<bool, [5]>([true, true, true, true, false])];
            tensor<bool, [5]> v_1_squeeze_mask_0 = const()[name = tensor<string, []>("v_1_squeeze_mask_0"), val = tensor<bool, [5]>([false, false, false, false, true])];
            tensor<fp16, [1, 4, 512, 64]> v_1_cast_fp16 = slice_by_index(begin = v_1_begin_0, end = v_1_end_0, end_mask = v_1_end_mask_0, squeeze_mask = v_1_squeeze_mask_0, x = qkv_1_cast_fp16)[name = tensor<string, []>("v_1_cast_fp16")];
            tensor<int32, [5]> var_136_begin_0 = const()[name = tensor<string, []>("op_136_begin_0"), val = tensor<int32, [5]>([0, 0, 0, 0, 0])];
            tensor<int32, [5]> var_136_end_0 = const()[name = tensor<string, []>("op_136_end_0"), val = tensor<int32, [5]>([1, 1, 1, 512, 64])];
            tensor<bool, [5]> var_136_end_mask_0 = const()[name = tensor<string, []>("op_136_end_mask_0"), val = tensor<bool, [5]>([false, true, true, true, true])];
            tensor<bool, [5]> var_136_squeeze_mask_0 = const()[name = tensor<string, []>("op_136_squeeze_mask_0"), val = tensor<bool, [5]>([true, false, false, false, false])];
            tensor<fp16, [2, 1, 1, 512, 64]> freqs_1_cast_fp16 = transpose(perm = freqs_1_perm_0, x = reshape_50_cast_fp16)[name = tensor<string, []>("transpose_203")];
            tensor<fp16, [1, 1, 512, 64]> var_136_cast_fp16 = slice_by_index(begin = var_136_begin_0, end = var_136_end_0, end_mask = var_136_end_mask_0, squeeze_mask = var_136_squeeze_mask_0, x = freqs_1_cast_fp16)[name = tensor<string, []>("op_136_cast_fp16")];
            tensor<fp16, [1, 4, 512, 64]> var_137_cast_fp16 = mul(x = t_1_cast_fp16, y = var_136_cast_fp16)[name = tensor<string, []>("op_137_cast_fp16")];
            tensor<int32, [5]> concat_5 = const()[name = tensor<string, []>("concat_5"), val = tensor<int32, [5]>([1, 4, 512, -1, 2])];
            tensor<fp16, [1, 4, 512, 32, 2]> x_1_cast_fp16 = reshape(shape = concat_5, x = t_1_cast_fp16)[name = tensor<string, []>("x_1_cast_fp16")];
            tensor<int32, [2]> var_140_split_sizes_0 = const()[name = tensor<string, []>("op_140_split_sizes_0"), val = tensor<int32, [2]>([1, 1])];
            tensor<int32, []> var_140_axis_0 = const()[name = tensor<string, []>("op_140_axis_0"), val = tensor<int32, []>(-1)];
            tensor<fp16, [1, 4, 512, 32, 1]> var_140_cast_fp16_0, tensor<fp16, [1, 4, 512, 32, 1]> var_140_cast_fp16_1 = split(axis = var_140_axis_0, split_sizes = var_140_split_sizes_0, x = x_1_cast_fp16)[name = tensor<string, []>("op_140_cast_fp16")];
            tensor<int32, [1]> squeeze_0_axes_0 = const()[name = tensor<string, []>("squeeze_0_axes_0"), val = tensor<int32, [1]>([-1])];
            tensor<fp16, [1, 4, 512, 32]> squeeze_0_cast_fp16 = squeeze(axes = squeeze_0_axes_0, x = var_140_cast_fp16_0)[name = tensor<string, []>("squeeze_0_cast_fp16")];
            tensor<int32, [1]> squeeze_1_axes_0 = const()[name = tensor<string, []>("squeeze_1_axes_0"), val = tensor<int32, [1]>([-1])];
            tensor<fp16, [1, 4, 512, 32]> squeeze_1_cast_fp16 = squeeze(axes = squeeze_1_axes_0, x = var_140_cast_fp16_1)[name = tensor<string, []>("squeeze_1_cast_fp16")];
            tensor<fp16, []> const_2_promoted_to_fp16 = const()[name = tensor<string, []>("const_2_promoted_to_fp16"), val = tensor<fp16, []>(-0x1p+0)];
            tensor<fp16, [1, 4, 512, 32]> var_143_cast_fp16 = mul(x = squeeze_1_cast_fp16, y = const_2_promoted_to_fp16)[name = tensor<string, []>("op_143_cast_fp16")];
            tensor<int32, []> var_145_axis_0 = const()[name = tensor<string, []>("op_145_axis_0"), val = tensor<int32, []>(-1)];
            tensor<fp16, [1, 4, 512, 32, 2]> var_145_cast_fp16 = stack(axis = var_145_axis_0, values = (var_143_cast_fp16, squeeze_0_cast_fp16))[name = tensor<string, []>("op_145_cast_fp16")];
            tensor<int32, [4]> concat_6 = const()[name = tensor<string, []>("concat_6"), val = tensor<int32, [4]>([1, 4, 512, 64])];
            tensor<fp16, [1, 4, 512, 64]> var_146_cast_fp16 = reshape(shape = concat_6, x = var_145_cast_fp16)[name = tensor<string, []>("op_146_cast_fp16")];
            tensor<int32, [5]> var_147_begin_0 = const()[name = tensor<string, []>("op_147_begin_0"), val = tensor<int32, [5]>([1, 0, 0, 0, 0])];
            tensor<int32, [5]> var_147_end_0 = const()[name = tensor<string, []>("op_147_end_0"), val = tensor<int32, [5]>([2, 1, 1, 512, 64])];
            tensor<bool, [5]> var_147_end_mask_0 = const()[name = tensor<string, []>("op_147_end_mask_0"), val = tensor<bool, [5]>([false, true, true, true, true])];
            tensor<bool, [5]> var_147_squeeze_mask_0 = const()[name = tensor<string, []>("op_147_squeeze_mask_0"), val = tensor<bool, [5]>([true, false, false, false, false])];
            tensor<fp16, [1, 1, 512, 64]> var_147_cast_fp16 = slice_by_index(begin = var_147_begin_0, end = var_147_end_0, end_mask = var_147_end_mask_0, squeeze_mask = var_147_squeeze_mask_0, x = freqs_1_cast_fp16)[name = tensor<string, []>("op_147_cast_fp16")];
            tensor<fp16, [1, 4, 512, 64]> var_148_cast_fp16 = mul(x = var_146_cast_fp16, y = var_147_cast_fp16)[name = tensor<string, []>("op_148_cast_fp16")];
            tensor<fp16, [1, 4, 512, 64]> q_1_cast_fp16 = add(x = var_137_cast_fp16, y = var_148_cast_fp16)[name = tensor<string, []>("q_1_cast_fp16")];
            tensor<fp16, [1, 4, 512, 64]> var_151_cast_fp16 = mul(x = t_3_cast_fp16, y = var_136_cast_fp16)[name = tensor<string, []>("op_151_cast_fp16")];
            tensor<int32, [5]> concat_7 = const()[name = tensor<string, []>("concat_7"), val = tensor<int32, [5]>([1, 4, 512, -1, 2])];
            tensor<fp16, [1, 4, 512, 32, 2]> x_3_cast_fp16 = reshape(shape = concat_7, x = t_3_cast_fp16)[name = tensor<string, []>("x_3_cast_fp16")];
            tensor<int32, [2]> var_154_split_sizes_0 = const()[name = tensor<string, []>("op_154_split_sizes_0"), val = tensor<int32, [2]>([1, 1])];
            tensor<int32, []> var_154_axis_0 = const()[name = tensor<string, []>("op_154_axis_0"), val = tensor<int32, []>(-1)];
            tensor<fp16, [1, 4, 512, 32, 1]> var_154_cast_fp16_0, tensor<fp16, [1, 4, 512, 32, 1]> var_154_cast_fp16_1 = split(axis = var_154_axis_0, split_sizes = var_154_split_sizes_0, x = x_3_cast_fp16)[name = tensor<string, []>("op_154_cast_fp16")];
            tensor<int32, [1]> squeeze_2_axes_0 = const()[name = tensor<string, []>("squeeze_2_axes_0"), val = tensor<int32, [1]>([-1])];
            tensor<fp16, [1, 4, 512, 32]> squeeze_2_cast_fp16 = squeeze(axes = squeeze_2_axes_0, x = var_154_cast_fp16_0)[name = tensor<string, []>("squeeze_2_cast_fp16")];
            tensor<int32, [1]> squeeze_3_axes_0 = const()[name = tensor<string, []>("squeeze_3_axes_0"), val = tensor<int32, [1]>([-1])];
            tensor<fp16, [1, 4, 512, 32]> squeeze_3_cast_fp16 = squeeze(axes = squeeze_3_axes_0, x = var_154_cast_fp16_1)[name = tensor<string, []>("squeeze_3_cast_fp16")];
            tensor<fp16, []> const_3_promoted_to_fp16 = const()[name = tensor<string, []>("const_3_promoted_to_fp16"), val = tensor<fp16, []>(-0x1p+0)];
            tensor<fp16, [1, 4, 512, 32]> var_157_cast_fp16 = mul(x = squeeze_3_cast_fp16, y = const_3_promoted_to_fp16)[name = tensor<string, []>("op_157_cast_fp16")];
            tensor<int32, []> var_159_axis_0 = const()[name = tensor<string, []>("op_159_axis_0"), val = tensor<int32, []>(-1)];
            tensor<fp16, [1, 4, 512, 32, 2]> var_159_cast_fp16 = stack(axis = var_159_axis_0, values = (var_157_cast_fp16, squeeze_2_cast_fp16))[name = tensor<string, []>("op_159_cast_fp16")];
            tensor<int32, [4]> concat_8 = const()[name = tensor<string, []>("concat_8"), val = tensor<int32, [4]>([1, 4, 512, 64])];
            tensor<fp16, [1, 4, 512, 64]> var_160_cast_fp16 = reshape(shape = concat_8, x = var_159_cast_fp16)[name = tensor<string, []>("op_160_cast_fp16")];
            tensor<fp16, [1, 4, 512, 64]> var_162_cast_fp16 = mul(x = var_160_cast_fp16, y = var_147_cast_fp16)[name = tensor<string, []>("op_162_cast_fp16")];
            tensor<fp16, [1, 4, 512, 64]> k_1_cast_fp16 = add(x = var_151_cast_fp16, y = var_162_cast_fp16)[name = tensor<string, []>("k_1_cast_fp16")];
            tensor<fp16, []> mul_0_y_0_to_fp16 = const()[name = tensor<string, []>("mul_0_y_0_to_fp16"), val = tensor<fp16, []>(0x1p-3)];
            tensor<fp16, [1, 4, 512, 64]> mul_0_cast_fp16 = mul(x = q_1_cast_fp16, y = mul_0_y_0_to_fp16)[name = tensor<string, []>("mul_0_cast_fp16")];
            tensor<bool, []> matmul_0_transpose_y_0 = const()[name = tensor<string, []>("matmul_0_transpose_y_0"), val = tensor<bool, []>(true)];
            tensor<bool, []> matmul_0_transpose_x_0 = const()[name = tensor<string, []>("matmul_0_transpose_x_0"), val = tensor<bool, []>(false)];
            tensor<fp16, [1, 4, 512, 512]> matmul_0_cast_fp16 = matmul(transpose_x = matmul_0_transpose_x_0, transpose_y = matmul_0_transpose_y_0, x = mul_0_cast_fp16, y = k_1_cast_fp16)[name = tensor<string, []>("matmul_0_cast_fp16")];
            tensor<int32, []> softmax_0_axis_0 = const()[name = tensor<string, []>("softmax_0_axis_0"), val = tensor<int32, []>(-1)];
            tensor<fp16, [1, 4, 512, 512]> softmax_0_cast_fp16 = softmax(axis = softmax_0_axis_0, x = matmul_0_cast_fp16)[name = tensor<string, []>("softmax_0_cast_fp16")];
            tensor<bool, []> context_1_transpose_x_0 = const()[name = tensor<string, []>("context_1_transpose_x_0"), val = tensor<bool, []>(false)];
            tensor<bool, []> context_1_transpose_y_0 = const()[name = tensor<string, []>("context_1_transpose_y_0"), val = tensor<bool, []>(false)];
            tensor<fp16, [1, 4, 512, 64]> context_1_cast_fp16 = matmul(transpose_x = context_1_transpose_x_0, transpose_y = context_1_transpose_y_0, x = softmax_0_cast_fp16, y = v_1_cast_fp16)[name = tensor<string, []>("context_1_cast_fp16")];
            tensor<int32, [4]> var_168_perm_0 = const()[name = tensor<string, []>("op_168_perm_0"), val = tensor<int32, [4]>([0, 2, 1, 3])];
            tensor<int32, [3]> concat_9 = const()[name = tensor<string, []>("concat_9"), val = tensor<int32, [3]>([1, 512, 256])];
            tensor<fp16, [1, 512, 4, 64]> var_168_cast_fp16 = transpose(perm = var_168_perm_0, x = context_1_cast_fp16)[name = tensor<string, []>("transpose_198")];
            tensor<fp16, [1, 512, 256]> input_11_cast_fp16 = reshape(shape = concat_9, x = var_168_cast_fp16)[name = tensor<string, []>("input_11_cast_fp16")];
            tensor<fp16, [256, 256]> lg_transformers_0_self_attn_out_proj_weight_to_fp16 = const()[name = tensor<string, []>("lg_transformers_0_self_attn_out_proj_weight_to_fp16"), val = tensor<fp16, [256, 256]>(BLOBFILE(path = tensor<string, []>("@model_path/weights/weight.bin"), offset = tensor<uint64, []>(461696)))];
            tensor<fp16, [256]> lg_transformers_0_self_attn_out_proj_bias_to_fp16 = const()[name = tensor<string, []>("lg_transformers_0_self_attn_out_proj_bias_to_fp16"), val = tensor<fp16, [256]>(BLOBFILE(path = tensor<string, []>("@model_path/weights/weight.bin"), offset = tensor<uint64, []>(592832)))];
            tensor<fp16, [1, 512, 256]> linear_5_cast_fp16 = linear(bias = lg_transformers_0_self_attn_out_proj_bias_to_fp16, weight = lg_transformers_0_self_attn_out_proj_weight_to_fp16, x = input_11_cast_fp16)[name = tensor<string, []>("linear_5_cast_fp16")];
            tensor<bool, []> input_13_interleave_0 = const()[name = tensor<string, []>("input_13_interleave_0"), val = tensor<bool, []>(false)];
            tensor<fp16, [1, 512, 512]> input_13_cast_fp16 = concat(axis = var_31, interleave = input_13_interleave_0, values = (linear_0_cast_fp16, linear_5_cast_fp16))[name = tensor<string, []>("input_13_cast_fp16")];
            tensor<fp16, [512, 512]> lg_transformers_0_self_attn_ffn_0_weight_to_fp16 = const()[name = tensor<string, []>("lg_transformers_0_self_attn_ffn_0_weight_to_fp16"), val = tensor<fp16, [512, 512]>(BLOBFILE(path = tensor<string, []>("@model_path/weights/weight.bin"), offset = tensor<uint64, []>(593408)))];
            tensor<fp16, [512]> lg_transformers_0_self_attn_ffn_0_bias_to_fp16 = const()[name = tensor<string, []>("lg_transformers_0_self_attn_ffn_0_bias_to_fp16"), val = tensor<fp16, [512]>(BLOBFILE(path = tensor<string, []>("@model_path/weights/weight.bin"), offset = tensor<uint64, []>(1117760)))];
            tensor<fp16, [1, 512, 512]> linear_6_cast_fp16 = linear(bias = lg_transformers_0_self_attn_ffn_0_bias_to_fp16, weight = lg_transformers_0_self_attn_ffn_0_weight_to_fp16, x = input_13_cast_fp16)[name = tensor<string, []>("linear_6_cast_fp16")];
            tensor<int32, [1]> input_17_axes_0 = const()[name = tensor<string, []>("input_17_axes_0"), val = tensor<int32, [1]>([-1])];
            tensor<fp16, [512]> lg_transformers_0_self_attn_ffn_1_weight_to_fp16 = const()[name = tensor<string, []>("lg_transformers_0_self_attn_ffn_1_weight_to_fp16"), val = tensor<fp16, [512]>(BLOBFILE(path = tensor<string, []>("@model_path/weights/weight.bin"), offset = tensor<uint64, []>(1118848)))];
            tensor<fp16, [512]> lg_transformers_0_self_attn_ffn_1_bias_to_fp16 = const()[name = tensor<string, []>("lg_transformers_0_self_attn_ffn_1_bias_to_fp16"), val = tensor<fp16, [512]>(BLOBFILE(path = tensor<string, []>("@model_path/weights/weight.bin"), offset = tensor<uint64, []>(1119936)))];
            tensor<fp16, []> var_16_to_fp16 = const()[name = tensor<string, []>("op_16_to_fp16"), val = tensor<fp16, []>(0x1.5p-17)];
            tensor<fp16, [1, 512, 512]> input_17_cast_fp16 = layer_norm(axes = input_17_axes_0, beta = lg_transformers_0_self_attn_ffn_1_bias_to_fp16, epsilon = var_16_to_fp16, gamma = lg_transformers_0_self_attn_ffn_1_weight_to_fp16, x = linear_6_cast_fp16)[name = tensor<string, []>("input_17_cast_fp16")];
            tensor<string, []> input_19_mode_0 = const()[name = tensor<string, []>("input_19_mode_0"), val = tensor<string, []>("EXACT")];
            tensor<fp16, [1, 512, 512]> input_19_cast_fp16 = gelu(mode = input_19_mode_0, x = input_17_cast_fp16)[name = tensor<string, []>("input_19_cast_fp16")];
            tensor<fp16, [256, 512]> lg_transformers_0_self_attn_ffn_3_weight_to_fp16 = const()[name = tensor<string, []>("lg_transformers_0_self_attn_ffn_3_weight_to_fp16"), val = tensor<fp16, [256, 512]>(BLOBFILE(path = tensor<string, []>("@model_path/weights/weight.bin"), offset = tensor<uint64, []>(1121024)))];
            tensor<fp16, [256]> lg_transformers_0_self_attn_ffn_3_bias_to_fp16 = const()[name = tensor<string, []>("lg_transformers_0_self_attn_ffn_3_bias_to_fp16"), val = tensor<fp16, [256]>(BLOBFILE(path = tensor<string, []>("@model_path/weights/weight.bin"), offset = tensor<uint64, []>(1383232)))];
            tensor<fp16, [1, 512, 256]> linear_7_cast_fp16 = linear(bias = lg_transformers_0_self_attn_ffn_3_bias_to_fp16, weight = lg_transformers_0_self_attn_ffn_3_weight_to_fp16, x = input_19_cast_fp16)[name = tensor<string, []>("linear_7_cast_fp16")];
            tensor<fp16, [1, 512, 256]> input_33_cast_fp16 = add(x = linear_0_cast_fp16, y = linear_7_cast_fp16)[name = tensor<string, []>("input_33_cast_fp16")];
            tensor<fp16, [1, 512, 768]> linear_8_cast_fp16 = linear(bias = lg_transformers_0_self_attn_Wqkv_bias_to_fp16, weight = lg_transformers_0_self_attn_Wqkv_weight_to_fp16, x = linear_1_cast_fp16)[name = tensor<string, []>("linear_8_cast_fp16")];
            tensor<int32, [5]> concat_10 = const()[name = tensor<string, []>("concat_10"), val = tensor<int32, [5]>([1, 512, 4, -1, 3])];
            tensor<fp16, [1, 512, 4, 64, 3]> var_197_cast_fp16 = reshape(shape = concat_10, x = linear_8_cast_fp16)[name = tensor<string, []>("op_197_cast_fp16")];
            tensor<int32, [5]> qkv_3_perm_0 = const()[name = tensor<string, []>("qkv_3_perm_0"), val = tensor<int32, [5]>([0, 2, 1, 3, 4])];
            tensor<int32, [5]> t_5_begin_0 = const()[name = tensor<string, []>("t_5_begin_0"), val = tensor<int32, [5]>([0, 0, 0, 0, 0])];
            tensor<int32, [5]> t_5_end_0 = const()[name = tensor<string, []>("t_5_end_0"), val = tensor<int32, [5]>([1, 4, 512, 64, 1])];
            tensor<bool, [5]> t_5_end_mask_0 = const()[name = tensor<string, []>("t_5_end_mask_0"), val = tensor<bool, [5]>([true, true, true, true, false])];
            tensor<bool, [5]> t_5_squeeze_mask_0 = const()[name = tensor<string, []>("t_5_squeeze_mask_0"), val = tensor<bool, [5]>([false, false, false, false, true])];
            tensor<fp16, [1, 4, 512, 64, 3]> qkv_3_cast_fp16 = transpose(perm = qkv_3_perm_0, x = var_197_cast_fp16)[name = tensor<string, []>("transpose_197")];
            tensor<fp16, [1, 4, 512, 64]> t_5_cast_fp16 = slice_by_index(begin = t_5_begin_0, end = t_5_end_0, end_mask = t_5_end_mask_0, squeeze_mask = t_5_squeeze_mask_0, x = qkv_3_cast_fp16)[name = tensor<string, []>("t_5_cast_fp16")];
            tensor<int32, [5]> t_7_begin_0 = const()[name = tensor<string, []>("t_7_begin_0"), val = tensor<int32, [5]>([0, 0, 0, 0, 1])];
            tensor<int32, [5]> t_7_end_0 = const()[name = tensor<string, []>("t_7_end_0"), val = tensor<int32, [5]>([1, 4, 512, 64, 2])];
            tensor<bool, [5]> t_7_end_mask_0 = const()[name = tensor<string, []>("t_7_end_mask_0"), val = tensor<bool, [5]>([true, true, true, true, false])];
            tensor<bool, [5]> t_7_squeeze_mask_0 = const()[name = tensor<string, []>("t_7_squeeze_mask_0"), val = tensor<bool, [5]>([false, false, false, false, true])];
            tensor<fp16, [1, 4, 512, 64]> t_7_cast_fp16 = slice_by_index(begin = t_7_begin_0, end = t_7_end_0, end_mask = t_7_end_mask_0, squeeze_mask = t_7_squeeze_mask_0, x = qkv_3_cast_fp16)[name = tensor<string, []>("t_7_cast_fp16")];
            tensor<int32, [5]> v_3_begin_0 = const()[name = tensor<string, []>("v_3_begin_0"), val = tensor<int32, [5]>([0, 0, 0, 0, 2])];
            tensor<int32, [5]> v_3_end_0 = const()[name = tensor<string, []>("v_3_end_0"), val = tensor<int32, [5]>([1, 4, 512, 64, 3])];
            tensor<bool, [5]> v_3_end_mask_0 = const()[name = tensor<string, []>("v_3_end_mask_0"), val = tensor<bool, [5]>([true, true, true, true, false])];
            tensor<bool, [5]> v_3_squeeze_mask_0 = const()[name = tensor<string, []>("v_3_squeeze_mask_0"), val = tensor<bool, [5]>([false, false, false, false, true])];
            tensor<fp16, [1, 4, 512, 64]> v_3_cast_fp16 = slice_by_index(begin = v_3_begin_0, end = v_3_end_0, end_mask = v_3_end_mask_0, squeeze_mask = v_3_squeeze_mask_0, x = qkv_3_cast_fp16)[name = tensor<string, []>("v_3_cast_fp16")];
            tensor<int32, [5]> var_202_begin_0 = const()[name = tensor<string, []>("op_202_begin_0"), val = tensor<int32, [5]>([0, 0, 0, 0, 0])];
            tensor<int32, [5]> var_202_end_0 = const()[name = tensor<string, []>("op_202_end_0"), val = tensor<int32, [5]>([1, 1, 1, 512, 64])];
            tensor<bool, [5]> var_202_end_mask_0 = const()[name = tensor<string, []>("op_202_end_mask_0"), val = tensor<bool, [5]>([false, true, true, true, true])];
            tensor<bool, [5]> var_202_squeeze_mask_0 = const()[name = tensor<string, []>("op_202_squeeze_mask_0"), val = tensor<bool, [5]>([true, false, false, false, false])];
            tensor<fp16, [2, 1, 1, 512, 64]> freqs_cast_fp16 = transpose(perm = freqs_perm_0, x = reshape_52_cast_fp16)[name = tensor<string, []>("transpose_200")];
            tensor<fp16, [1, 1, 512, 64]> var_202_cast_fp16 = slice_by_index(begin = var_202_begin_0, end = var_202_end_0, end_mask = var_202_end_mask_0, squeeze_mask = var_202_squeeze_mask_0, x = freqs_cast_fp16)[name = tensor<string, []>("op_202_cast_fp16")];
            tensor<fp16, [1, 4, 512, 64]> var_203_cast_fp16 = mul(x = t_5_cast_fp16, y = var_202_cast_fp16)[name = tensor<string, []>("op_203_cast_fp16")];
            tensor<int32, [5]> concat_11 = const()[name = tensor<string, []>("concat_11"), val = tensor<int32, [5]>([1, 4, 512, -1, 2])];
            tensor<fp16, [1, 4, 512, 32, 2]> x_5_cast_fp16 = reshape(shape = concat_11, x = t_5_cast_fp16)[name = tensor<string, []>("x_5_cast_fp16")];
            tensor<int32, [2]> var_206_split_sizes_0 = const()[name = tensor<string, []>("op_206_split_sizes_0"), val = tensor<int32, [2]>([1, 1])];
            tensor<int32, []> var_206_axis_0 = const()[name = tensor<string, []>("op_206_axis_0"), val = tensor<int32, []>(-1)];
            tensor<fp16, [1, 4, 512, 32, 1]> var_206_cast_fp16_0, tensor<fp16, [1, 4, 512, 32, 1]> var_206_cast_fp16_1 = split(axis = var_206_axis_0, split_sizes = var_206_split_sizes_0, x = x_5_cast_fp16)[name = tensor<string, []>("op_206_cast_fp16")];
            tensor<int32, [1]> squeeze_4_axes_0 = const()[name = tensor<string, []>("squeeze_4_axes_0"), val = tensor<int32, [1]>([-1])];
            tensor<fp16, [1, 4, 512, 32]> squeeze_4_cast_fp16 = squeeze(axes = squeeze_4_axes_0, x = var_206_cast_fp16_0)[name = tensor<string, []>("squeeze_4_cast_fp16")];
            tensor<int32, [1]> squeeze_5_axes_0 = const()[name = tensor<string, []>("squeeze_5_axes_0"), val = tensor<int32, [1]>([-1])];
            tensor<fp16, [1, 4, 512, 32]> squeeze_5_cast_fp16 = squeeze(axes = squeeze_5_axes_0, x = var_206_cast_fp16_1)[name = tensor<string, []>("squeeze_5_cast_fp16")];
            tensor<fp16, []> const_4_promoted_to_fp16 = const()[name = tensor<string, []>("const_4_promoted_to_fp16"), val = tensor<fp16, []>(-0x1p+0)];
            tensor<fp16, [1, 4, 512, 32]> var_209_cast_fp16 = mul(x = squeeze_5_cast_fp16, y = const_4_promoted_to_fp16)[name = tensor<string, []>("op_209_cast_fp16")];
            tensor<int32, []> var_211_axis_0 = const()[name = tensor<string, []>("op_211_axis_0"), val = tensor<int32, []>(-1)];
            tensor<fp16, [1, 4, 512, 32, 2]> var_211_cast_fp16 = stack(axis = var_211_axis_0, values = (var_209_cast_fp16, squeeze_4_cast_fp16))[name = tensor<string, []>("op_211_cast_fp16")];
            tensor<int32, [4]> concat_12 = const()[name = tensor<string, []>("concat_12"), val = tensor<int32, [4]>([1, 4, 512, 64])];
            tensor<fp16, [1, 4, 512, 64]> var_212_cast_fp16 = reshape(shape = concat_12, x = var_211_cast_fp16)[name = tensor<string, []>("op_212_cast_fp16")];
            tensor<int32, [5]> var_213_begin_0 = const()[name = tensor<string, []>("op_213_begin_0"), val = tensor<int32, [5]>([1, 0, 0, 0, 0])];
            tensor<int32, [5]> var_213_end_0 = const()[name = tensor<string, []>("op_213_end_0"), val = tensor<int32, [5]>([2, 1, 1, 512, 64])];
            tensor<bool, [5]> var_213_end_mask_0 = const()[name = tensor<string, []>("op_213_end_mask_0"), val = tensor<bool, [5]>([false, true, true, true, true])];
            tensor<bool, [5]> var_213_squeeze_mask_0 = const()[name = tensor<string, []>("op_213_squeeze_mask_0"), val = tensor<bool, [5]>([true, false, false, false, false])];
            tensor<fp16, [1, 1, 512, 64]> var_213_cast_fp16 = slice_by_index(begin = var_213_begin_0, end = var_213_end_0, end_mask = var_213_end_mask_0, squeeze_mask = var_213_squeeze_mask_0, x = freqs_cast_fp16)[name = tensor<string, []>("op_213_cast_fp16")];
            tensor<fp16, [1, 4, 512, 64]> var_214_cast_fp16 = mul(x = var_212_cast_fp16, y = var_213_cast_fp16)[name = tensor<string, []>("op_214_cast_fp16")];
            tensor<fp16, [1, 4, 512, 64]> q_3_cast_fp16 = add(x = var_203_cast_fp16, y = var_214_cast_fp16)[name = tensor<string, []>("q_3_cast_fp16")];
            tensor<fp16, [1, 4, 512, 64]> var_217_cast_fp16 = mul(x = t_7_cast_fp16, y = var_202_cast_fp16)[name = tensor<string, []>("op_217_cast_fp16")];
            tensor<int32, [5]> concat_13 = const()[name = tensor<string, []>("concat_13"), val = tensor<int32, [5]>([1, 4, 512, -1, 2])];
            tensor<fp16, [1, 4, 512, 32, 2]> x_7_cast_fp16 = reshape(shape = concat_13, x = t_7_cast_fp16)[name = tensor<string, []>("x_7_cast_fp16")];
            tensor<int32, [2]> var_220_split_sizes_0 = const()[name = tensor<string, []>("op_220_split_sizes_0"), val = tensor<int32, [2]>([1, 1])];
            tensor<int32, []> var_220_axis_0 = const()[name = tensor<string, []>("op_220_axis_0"), val = tensor<int32, []>(-1)];
            tensor<fp16, [1, 4, 512, 32, 1]> var_220_cast_fp16_0, tensor<fp16, [1, 4, 512, 32, 1]> var_220_cast_fp16_1 = split(axis = var_220_axis_0, split_sizes = var_220_split_sizes_0, x = x_7_cast_fp16)[name = tensor<string, []>("op_220_cast_fp16")];
            tensor<int32, [1]> squeeze_6_axes_0 = const()[name = tensor<string, []>("squeeze_6_axes_0"), val = tensor<int32, [1]>([-1])];
            tensor<fp16, [1, 4, 512, 32]> squeeze_6_cast_fp16 = squeeze(axes = squeeze_6_axes_0, x = var_220_cast_fp16_0)[name = tensor<string, []>("squeeze_6_cast_fp16")];
            tensor<int32, [1]> squeeze_7_axes_0 = const()[name = tensor<string, []>("squeeze_7_axes_0"), val = tensor<int32, [1]>([-1])];
            tensor<fp16, [1, 4, 512, 32]> squeeze_7_cast_fp16 = squeeze(axes = squeeze_7_axes_0, x = var_220_cast_fp16_1)[name = tensor<string, []>("squeeze_7_cast_fp16")];
            tensor<fp16, []> const_5_promoted_to_fp16 = const()[name = tensor<string, []>("const_5_promoted_to_fp16"), val = tensor<fp16, []>(-0x1p+0)];
            tensor<fp16, [1, 4, 512, 32]> var_223_cast_fp16 = mul(x = squeeze_7_cast_fp16, y = const_5_promoted_to_fp16)[name = tensor<string, []>("op_223_cast_fp16")];
            tensor<int32, []> var_225_axis_0 = const()[name = tensor<string, []>("op_225_axis_0"), val = tensor<int32, []>(-1)];
            tensor<fp16, [1, 4, 512, 32, 2]> var_225_cast_fp16 = stack(axis = var_225_axis_0, values = (var_223_cast_fp16, squeeze_6_cast_fp16))[name = tensor<string, []>("op_225_cast_fp16")];
            tensor<int32, [4]> concat_14 = const()[name = tensor<string, []>("concat_14"), val = tensor<int32, [4]>([1, 4, 512, 64])];
            tensor<fp16, [1, 4, 512, 64]> var_226_cast_fp16 = reshape(shape = concat_14, x = var_225_cast_fp16)[name = tensor<string, []>("op_226_cast_fp16")];
            tensor<fp16, [1, 4, 512, 64]> var_228_cast_fp16 = mul(x = var_226_cast_fp16, y = var_213_cast_fp16)[name = tensor<string, []>("op_228_cast_fp16")];
            tensor<fp16, [1, 4, 512, 64]> k_3_cast_fp16 = add(x = var_217_cast_fp16, y = var_228_cast_fp16)[name = tensor<string, []>("k_3_cast_fp16")];
            tensor<fp16, []> mul_1_y_0_to_fp16 = const()[name = tensor<string, []>("mul_1_y_0_to_fp16"), val = tensor<fp16, []>(0x1p-3)];
            tensor<fp16, [1, 4, 512, 64]> mul_1_cast_fp16 = mul(x = q_3_cast_fp16, y = mul_1_y_0_to_fp16)[name = tensor<string, []>("mul_1_cast_fp16")];
            tensor<bool, []> matmul_1_transpose_y_0 = const()[name = tensor<string, []>("matmul_1_transpose_y_0"), val = tensor<bool, []>(true)];
            tensor<bool, []> matmul_1_transpose_x_0 = const()[name = tensor<string, []>("matmul_1_transpose_x_0"), val = tensor<bool, []>(false)];
            tensor<fp16, [1, 4, 512, 512]> matmul_1_cast_fp16 = matmul(transpose_x = matmul_1_transpose_x_0, transpose_y = matmul_1_transpose_y_0, x = mul_1_cast_fp16, y = k_3_cast_fp16)[name = tensor<string, []>("matmul_1_cast_fp16")];
            tensor<int32, []> softmax_1_axis_0 = const()[name = tensor<string, []>("softmax_1_axis_0"), val = tensor<int32, []>(-1)];
            tensor<fp16, [1, 4, 512, 512]> softmax_1_cast_fp16 = softmax(axis = softmax_1_axis_0, x = matmul_1_cast_fp16)[name = tensor<string, []>("softmax_1_cast_fp16")];
            tensor<bool, []> context_3_transpose_x_0 = const()[name = tensor<string, []>("context_3_transpose_x_0"), val = tensor<bool, []>(false)];
            tensor<bool, []> context_3_transpose_y_0 = const()[name = tensor<string, []>("context_3_transpose_y_0"), val = tensor<bool, []>(false)];
            tensor<fp16, [1, 4, 512, 64]> context_3_cast_fp16 = matmul(transpose_x = context_3_transpose_x_0, transpose_y = context_3_transpose_y_0, x = softmax_1_cast_fp16, y = v_3_cast_fp16)[name = tensor<string, []>("context_3_cast_fp16")];
            tensor<int32, [4]> var_234_perm_0 = const()[name = tensor<string, []>("op_234_perm_0"), val = tensor<int32, [4]>([0, 2, 1, 3])];
            tensor<int32, [3]> concat_15 = const()[name = tensor<string, []>("concat_15"), val = tensor<int32, [3]>([1, 512, 256])];
            tensor<fp16, [1, 512, 4, 64]> var_234_cast_fp16 = transpose(perm = var_234_perm_0, x = context_3_cast_fp16)[name = tensor<string, []>("transpose_196")];
            tensor<fp16, [1, 512, 256]> input_23_cast_fp16 = reshape(shape = concat_15, x = var_234_cast_fp16)[name = tensor<string, []>("input_23_cast_fp16")];
            tensor<fp16, [1, 512, 256]> linear_9_cast_fp16 = linear(bias = lg_transformers_0_self_attn_out_proj_bias_to_fp16, weight = lg_transformers_0_self_attn_out_proj_weight_to_fp16, x = input_23_cast_fp16)[name = tensor<string, []>("linear_9_cast_fp16")];
            tensor<bool, []> input_25_interleave_0 = const()[name = tensor<string, []>("input_25_interleave_0"), val = tensor<bool, []>(false)];
            tensor<fp16, [1, 512, 512]> input_25_cast_fp16 = concat(axis = var_31, interleave = input_25_interleave_0, values = (linear_1_cast_fp16, linear_9_cast_fp16))[name = tensor<string, []>("input_25_cast_fp16")];
            tensor<fp16, [1, 512, 512]> linear_10_cast_fp16 = linear(bias = lg_transformers_0_self_attn_ffn_0_bias_to_fp16, weight = lg_transformers_0_self_attn_ffn_0_weight_to_fp16, x = input_25_cast_fp16)[name = tensor<string, []>("linear_10_cast_fp16")];
            tensor<int32, [1]> input_29_axes_0 = const()[name = tensor<string, []>("input_29_axes_0"), val = tensor<int32, [1]>([-1])];
            tensor<fp16, [1, 512, 512]> input_29_cast_fp16 = layer_norm(axes = input_29_axes_0, beta = lg_transformers_0_self_attn_ffn_1_bias_to_fp16, epsilon = var_16_to_fp16, gamma = lg_transformers_0_self_attn_ffn_1_weight_to_fp16, x = linear_10_cast_fp16)[name = tensor<string, []>("input_29_cast_fp16")];
            tensor<string, []> input_31_mode_0 = const()[name = tensor<string, []>("input_31_mode_0"), val = tensor<string, []>("EXACT")];
            tensor<fp16, [1, 512, 512]> input_31_cast_fp16 = gelu(mode = input_31_mode_0, x = input_29_cast_fp16)[name = tensor<string, []>("input_31_cast_fp16")];
            tensor<fp16, [1, 512, 256]> linear_11_cast_fp16 = linear(bias = lg_transformers_0_self_attn_ffn_3_bias_to_fp16, weight = lg_transformers_0_self_attn_ffn_3_weight_to_fp16, x = input_31_cast_fp16)[name = tensor<string, []>("linear_11_cast_fp16")];
            tensor<fp16, [1, 512, 256]> input_35_cast_fp16 = add(x = linear_1_cast_fp16, y = linear_11_cast_fp16)[name = tensor<string, []>("input_35_cast_fp16")];
            tensor<fp16, [256, 256]> lg_transformers_0_cross_attn_to_qk_weight_to_fp16 = const()[name = tensor<string, []>("lg_transformers_0_cross_attn_to_qk_weight_to_fp16"), val = tensor<fp16, [256, 256]>(BLOBFILE(path = tensor<string, []>("@model_path/weights/weight.bin"), offset = tensor<uint64, []>(1383808)))];
            tensor<fp16, [256]> lg_transformers_0_cross_attn_to_qk_bias_to_fp16 = const()[name = tensor<string, []>("lg_transformers_0_cross_attn_to_qk_bias_to_fp16"), val = tensor<fp16, [256]>(BLOBFILE(path = tensor<string, []>("@model_path/weights/weight.bin"), offset = tensor<uint64, []>(1514944)))];
            tensor<fp16, [1, 512, 256]> linear_12_cast_fp16 = linear(bias = lg_transformers_0_cross_attn_to_qk_bias_to_fp16, weight = lg_transformers_0_cross_attn_to_qk_weight_to_fp16, x = input_33_cast_fp16)[name = tensor<string, []>("linear_12_cast_fp16")];
            tensor<fp16, [1, 512, 256]> linear_13_cast_fp16 = linear(bias = lg_transformers_0_cross_attn_to_qk_bias_to_fp16, weight = lg_transformers_0_cross_attn_to_qk_weight_to_fp16, x = input_35_cast_fp16)[name = tensor<string, []>("linear_13_cast_fp16")];
            tensor<fp16, [256, 256]> lg_transformers_0_cross_attn_to_v_weight_to_fp16 = const()[name = tensor<string, []>("lg_transformers_0_cross_attn_to_v_weight_to_fp16"), val = tensor<fp16, [256, 256]>(BLOBFILE(path = tensor<string, []>("@model_path/weights/weight.bin"), offset = tensor<uint64, []>(1515520)))];
            tensor<fp16, [256]> lg_transformers_0_cross_attn_to_v_bias_to_fp16 = const()[name = tensor<string, []>("lg_transformers_0_cross_attn_to_v_bias_to_fp16"), val = tensor<fp16, [256]>(BLOBFILE(path = tensor<string, []>("@model_path/weights/weight.bin"), offset = tensor<uint64, []>(1646656)))];
            tensor<fp16, [1, 512, 256]> linear_14_cast_fp16 = linear(bias = lg_transformers_0_cross_attn_to_v_bias_to_fp16, weight = lg_transformers_0_cross_attn_to_v_weight_to_fp16, x = input_33_cast_fp16)[name = tensor<string, []>("linear_14_cast_fp16")];
            tensor<fp16, [1, 512, 256]> linear_15_cast_fp16 = linear(bias = lg_transformers_0_cross_attn_to_v_bias_to_fp16, weight = lg_transformers_0_cross_attn_to_v_weight_to_fp16, x = input_35_cast_fp16)[name = tensor<string, []>("linear_15_cast_fp16")];
            tensor<int32, [4]> concat_16 = const()[name = tensor<string, []>("concat_16"), val = tensor<int32, [4]>([1, 512, 4, -1])];
            tensor<fp16, [1, 512, 4, 64]> var_273_cast_fp16 = reshape(shape = concat_16, x = linear_12_cast_fp16)[name = tensor<string, []>("op_273_cast_fp16")];
            tensor<int32, [4]> concat_17 = const()[name = tensor<string, []>("concat_17"), val = tensor<int32, [4]>([1, 512, 4, -1])];
            tensor<fp16, [1, 512, 4, 64]> var_276_cast_fp16 = reshape(shape = concat_17, x = linear_13_cast_fp16)[name = tensor<string, []>("op_276_cast_fp16")];
            tensor<int32, [4]> concat_18 = const()[name = tensor<string, []>("concat_18"), val = tensor<int32, [4]>([1, 512, 4, -1])];
            tensor<fp16, [1, 512, 4, 64]> var_279_cast_fp16 = reshape(shape = concat_18, x = linear_14_cast_fp16)[name = tensor<string, []>("op_279_cast_fp16")];
            tensor<int32, [4]> concat_19 = const()[name = tensor<string, []>("concat_19"), val = tensor<int32, [4]>([1, 512, 4, -1])];
            tensor<fp16, [1, 512, 4, 64]> var_282_cast_fp16 = reshape(shape = concat_19, x = linear_15_cast_fp16)[name = tensor<string, []>("op_282_cast_fp16")];
            tensor<int32, [4]> var_283_perm_0 = const()[name = tensor<string, []>("op_283_perm_0"), val = tensor<int32, [4]>([0, 2, 1, 3])];
            tensor<fp16, []> var_284_to_fp16 = const()[name = tensor<string, []>("op_284_to_fp16"), val = tensor<fp16, []>(0x1.6ap-2)];
            tensor<fp16, [1, 512, 4, 64]> var_285_cast_fp16 = mul(x = var_273_cast_fp16, y = var_284_to_fp16)[name = tensor<string, []>("op_285_cast_fp16")];
            tensor<fp16, []> var_286_to_fp16 = const()[name = tensor<string, []>("op_286_to_fp16"), val = tensor<fp16, []>(0x1.6ap-2)];
            tensor<fp16, [1, 512, 4, 64]> var_287_cast_fp16 = mul(x = var_276_cast_fp16, y = var_286_to_fp16)[name = tensor<string, []>("op_287_cast_fp16")];
            tensor<bool, []> input_37_transpose_x_0 = const()[name = tensor<string, []>("input_37_transpose_x_0"), val = tensor<bool, []>(false)];
            tensor<bool, []> input_37_transpose_y_0 = const()[name = tensor<string, []>("input_37_transpose_y_0"), val = tensor<bool, []>(true)];
            tensor<int32, [4]> transpose_80_perm_0 = const()[name = tensor<string, []>("transpose_80_perm_0"), val = tensor<int32, [4]>([0, 2, -3, -1])];
            tensor<int32, [4]> transpose_81_perm_0 = const()[name = tensor<string, []>("transpose_81_perm_0"), val = tensor<int32, [4]>([0, 2, -3, -1])];
            tensor<fp16, [1, 4, 512, 64]> transpose_81 = transpose(perm = transpose_81_perm_0, x = var_287_cast_fp16)[name = tensor<string, []>("transpose_193")];
            tensor<fp16, [1, 4, 512, 64]> transpose_80 = transpose(perm = transpose_80_perm_0, x = var_285_cast_fp16)[name = tensor<string, []>("transpose_194")];
            tensor<fp16, [1, 4, 512, 512]> input_37_cast_fp16 = matmul(transpose_x = input_37_transpose_x_0, transpose_y = input_37_transpose_y_0, x = transpose_80, y = transpose_81)[name = tensor<string, []>("input_37_cast_fp16")];
            tensor<fp16, [1, 4, 512, 512]> var_290_cast_fp16 = softmax(axis = var_31, x = input_37_cast_fp16)[name = tensor<string, []>("op_290_cast_fp16")];
            tensor<int32, [4]> var_291_perm_0 = const()[name = tensor<string, []>("op_291_perm_0"), val = tensor<int32, [4]>([0, 1, -1, -2])];
            tensor<fp16, [1, 4, 512, 512]> var_291_cast_fp16 = transpose(perm = var_291_perm_0, x = input_37_cast_fp16)[name = tensor<string, []>("transpose_192")];
            tensor<fp16, [1, 4, 512, 512]> attn10_1_cast_fp16 = softmax(axis = var_31, x = var_291_cast_fp16)[name = tensor<string, []>("attn10_1_cast_fp16")];
            tensor<int32, [3]> concat_24 = const()[name = tensor<string, []>("concat_24"), val = tensor<int32, [3]>([4, 512, 512])];
            tensor<fp16, [4, 512, 512]> reshape_4_cast_fp16 = reshape(shape = concat_24, x = var_290_cast_fp16)[name = tensor<string, []>("reshape_4_cast_fp16")];
            tensor<int32, [3]> concat_25 = const()[name = tensor<string, []>("concat_25"), val = tensor<int32, [3]>([4, 512, 64])];
            tensor<fp16, [1, 4, 512, 64]> var_283_cast_fp16 = transpose(perm = var_283_perm_0, x = var_282_cast_fp16)[name = tensor<string, []>("transpose_195")];
            tensor<fp16, [4, 512, 64]> reshape_5_cast_fp16 = reshape(shape = concat_25, x = var_283_cast_fp16)[name = tensor<string, []>("reshape_5_cast_fp16")];
            tensor<bool, []> matmul_2_transpose_x_0 = const()[name = tensor<string, []>("matmul_2_transpose_x_0"), val = tensor<bool, []>(false)];
            tensor<bool, []> matmul_2_transpose_y_0 = const()[name = tensor<string, []>("matmul_2_transpose_y_0"), val = tensor<bool, []>(false)];
            tensor<fp16, [4, 512, 64]> matmul_2_cast_fp16 = matmul(transpose_x = matmul_2_transpose_x_0, transpose_y = matmul_2_transpose_y_0, x = reshape_4_cast_fp16, y = reshape_5_cast_fp16)[name = tensor<string, []>("matmul_2_cast_fp16")];
            tensor<int32, [4]> concat_29 = const()[name = tensor<string, []>("concat_29"), val = tensor<int32, [4]>([1, 4, 512, 64])];
            tensor<fp16, [1, 4, 512, 64]> reshape_6_cast_fp16 = reshape(shape = concat_29, x = matmul_2_cast_fp16)[name = tensor<string, []>("reshape_6_cast_fp16")];
            tensor<int32, [4]> transpose_27_perm_0 = const()[name = tensor<string, []>("transpose_27_perm_0"), val = tensor<int32, [4]>([0, 2, 1, 3])];
            tensor<bool, []> t_11_transpose_x_1 = const()[name = tensor<string, []>("t_11_transpose_x_1"), val = tensor<bool, []>(false)];
            tensor<bool, []> t_11_transpose_y_1 = const()[name = tensor<string, []>("t_11_transpose_y_1"), val = tensor<bool, []>(false)];
            tensor<fp16, [1, 4, 512, 64]> transpose_27_cast_fp16 = transpose(perm = transpose_27_perm_0, x = var_279_cast_fp16)[name = tensor<string, []>("transpose_191")];
            tensor<fp16, [1, 4, 512, 64]> t_11_cast_fp16 = matmul(transpose_x = t_11_transpose_x_1, transpose_y = t_11_transpose_y_1, x = attn10_1_cast_fp16, y = transpose_27_cast_fp16)[name = tensor<string, []>("t_11_cast_fp16")];
            tensor<int32, [4]> var_299_perm_0 = const()[name = tensor<string, []>("op_299_perm_0"), val = tensor<int32, [4]>([0, 2, 1, 3])];
            tensor<int32, [3]> concat_30 = const()[name = tensor<string, []>("concat_30"), val = tensor<int32, [3]>([1, 512, 256])];
            tensor<fp16, [1, 512, 4, 64]> var_299_cast_fp16 = transpose(perm = var_299_perm_0, x = reshape_6_cast_fp16)[name = tensor<string, []>("transpose_190")];
            tensor<fp16, [1, 512, 256]> input_41_cast_fp16 = reshape(shape = concat_30, x = var_299_cast_fp16)[name = tensor<string, []>("input_41_cast_fp16")];
            tensor<int32, [4]> var_301_perm_0 = const()[name = tensor<string, []>("op_301_perm_0"), val = tensor<int32, [4]>([0, 2, 1, 3])];
            tensor<int32, [3]> concat_31 = const()[name = tensor<string, []>("concat_31"), val = tensor<int32, [3]>([1, 512, 256])];
            tensor<fp16, [1, 512, 4, 64]> var_301_cast_fp16 = transpose(perm = var_301_perm_0, x = t_11_cast_fp16)[name = tensor<string, []>("transpose_189")];
            tensor<fp16, [1, 512, 256]> input_43_cast_fp16 = reshape(shape = concat_31, x = var_301_cast_fp16)[name = tensor<string, []>("input_43_cast_fp16")];
            tensor<fp16, [256, 256]> lg_transformers_0_cross_attn_to_out_weight_to_fp16 = const()[name = tensor<string, []>("lg_transformers_0_cross_attn_to_out_weight_to_fp16"), val = tensor<fp16, [256, 256]>(BLOBFILE(path = tensor<string, []>("@model_path/weights/weight.bin"), offset = tensor<uint64, []>(1647232)))];
            tensor<fp16, [256]> lg_transformers_0_cross_attn_to_out_bias_to_fp16 = const()[name = tensor<string, []>("lg_transformers_0_cross_attn_to_out_bias_to_fp16"), val = tensor<fp16, [256]>(BLOBFILE(path = tensor<string, []>("@model_path/weights/weight.bin"), offset = tensor<uint64, []>(1778368)))];
            tensor<fp16, [1, 512, 256]> linear_16_cast_fp16 = linear(bias = lg_transformers_0_cross_attn_to_out_bias_to_fp16, weight = lg_transformers_0_cross_attn_to_out_weight_to_fp16, x = input_41_cast_fp16)[name = tensor<string, []>("linear_16_cast_fp16")];
            tensor<fp16, [1, 512, 256]> linear_17_cast_fp16 = linear(bias = lg_transformers_0_cross_attn_to_out_bias_to_fp16, weight = lg_transformers_0_cross_attn_to_out_weight_to_fp16, x = input_43_cast_fp16)[name = tensor<string, []>("linear_17_cast_fp16")];
            tensor<bool, []> input_45_interleave_0 = const()[name = tensor<string, []>("input_45_interleave_0"), val = tensor<bool, []>(false)];
            tensor<fp16, [1, 512, 512]> input_45_cast_fp16 = concat(axis = var_31, interleave = input_45_interleave_0, values = (input_33_cast_fp16, linear_16_cast_fp16))[name = tensor<string, []>("input_45_cast_fp16")];
            tensor<fp16, [512, 512]> lg_transformers_0_cross_attn_ffn_0_weight_to_fp16 = const()[name = tensor<string, []>("lg_transformers_0_cross_attn_ffn_0_weight_to_fp16"), val = tensor<fp16, [512, 512]>(BLOBFILE(path = tensor<string, []>("@model_path/weights/weight.bin"), offset = tensor<uint64, []>(1778944)))];
            tensor<fp16, [512]> lg_transformers_0_cross_attn_ffn_0_bias_to_fp16 = const()[name = tensor<string, []>("lg_transformers_0_cross_attn_ffn_0_bias_to_fp16"), val = tensor<fp16, [512]>(BLOBFILE(path = tensor<string, []>("@model_path/weights/weight.bin"), offset = tensor<uint64, []>(2303296)))];
            tensor<fp16, [1, 512, 512]> linear_18_cast_fp16 = linear(bias = lg_transformers_0_cross_attn_ffn_0_bias_to_fp16, weight = lg_transformers_0_cross_attn_ffn_0_weight_to_fp16, x = input_45_cast_fp16)[name = tensor<string, []>("linear_18_cast_fp16")];
            tensor<int32, [1]> input_49_axes_0 = const()[name = tensor<string, []>("input_49_axes_0"), val = tensor<int32, [1]>([-1])];
            tensor<fp16, [512]> lg_transformers_0_cross_attn_ffn_1_weight_to_fp16 = const()[name = tensor<string, []>("lg_transformers_0_cross_attn_ffn_1_weight_to_fp16"), val = tensor<fp16, [512]>(BLOBFILE(path = tensor<string, []>("@model_path/weights/weight.bin"), offset = tensor<uint64, []>(2304384)))];
            tensor<fp16, [512]> lg_transformers_0_cross_attn_ffn_1_bias_to_fp16 = const()[name = tensor<string, []>("lg_transformers_0_cross_attn_ffn_1_bias_to_fp16"), val = tensor<fp16, [512]>(BLOBFILE(path = tensor<string, []>("@model_path/weights/weight.bin"), offset = tensor<uint64, []>(2305472)))];
            tensor<fp16, [1, 512, 512]> input_49_cast_fp16 = layer_norm(axes = input_49_axes_0, beta = lg_transformers_0_cross_attn_ffn_1_bias_to_fp16, epsilon = var_16_to_fp16, gamma = lg_transformers_0_cross_attn_ffn_1_weight_to_fp16, x = linear_18_cast_fp16)[name = tensor<string, []>("input_49_cast_fp16")];
            tensor<string, []> input_51_mode_0 = const()[name = tensor<string, []>("input_51_mode_0"), val = tensor<string, []>("EXACT")];
            tensor<fp16, [1, 512, 512]> input_51_cast_fp16 = gelu(mode = input_51_mode_0, x = input_49_cast_fp16)[name = tensor<string, []>("input_51_cast_fp16")];
            tensor<fp16, [256, 512]> lg_transformers_0_cross_attn_ffn_3_weight_to_fp16 = const()[name = tensor<string, []>("lg_transformers_0_cross_attn_ffn_3_weight_to_fp16"), val = tensor<fp16, [256, 512]>(BLOBFILE(path = tensor<string, []>("@model_path/weights/weight.bin"), offset = tensor<uint64, []>(2306560)))];
            tensor<fp16, [256]> lg_transformers_0_cross_attn_ffn_3_bias_to_fp16 = const()[name = tensor<string, []>("lg_transformers_0_cross_attn_ffn_3_bias_to_fp16"), val = tensor<fp16, [256]>(BLOBFILE(path = tensor<string, []>("@model_path/weights/weight.bin"), offset = tensor<uint64, []>(2568768)))];
            tensor<fp16, [1, 512, 256]> linear_19_cast_fp16 = linear(bias = lg_transformers_0_cross_attn_ffn_3_bias_to_fp16, weight = lg_transformers_0_cross_attn_ffn_3_weight_to_fp16, x = input_51_cast_fp16)[name = tensor<string, []>("linear_19_cast_fp16")];
            tensor<fp16, [1, 512, 256]> input_61_cast_fp16 = add(x = input_33_cast_fp16, y = linear_19_cast_fp16)[name = tensor<string, []>("input_61_cast_fp16")];
            tensor<bool, []> input_53_interleave_0 = const()[name = tensor<string, []>("input_53_interleave_0"), val = tensor<bool, []>(false)];
            tensor<fp16, [1, 512, 512]> input_53_cast_fp16 = concat(axis = var_31, interleave = input_53_interleave_0, values = (input_35_cast_fp16, linear_17_cast_fp16))[name = tensor<string, []>("input_53_cast_fp16")];
            tensor<fp16, [1, 512, 512]> linear_20_cast_fp16 = linear(bias = lg_transformers_0_cross_attn_ffn_0_bias_to_fp16, weight = lg_transformers_0_cross_attn_ffn_0_weight_to_fp16, x = input_53_cast_fp16)[name = tensor<string, []>("linear_20_cast_fp16")];
            tensor<int32, [1]> input_57_axes_0 = const()[name = tensor<string, []>("input_57_axes_0"), val = tensor<int32, [1]>([-1])];
            tensor<fp16, [1, 512, 512]> input_57_cast_fp16 = layer_norm(axes = input_57_axes_0, beta = lg_transformers_0_cross_attn_ffn_1_bias_to_fp16, epsilon = var_16_to_fp16, gamma = lg_transformers_0_cross_attn_ffn_1_weight_to_fp16, x = linear_20_cast_fp16)[name = tensor<string, []>("input_57_cast_fp16")];
            tensor<string, []> input_59_mode_0 = const()[name = tensor<string, []>("input_59_mode_0"), val = tensor<string, []>("EXACT")];
            tensor<fp16, [1, 512, 512]> input_59_cast_fp16 = gelu(mode = input_59_mode_0, x = input_57_cast_fp16)[name = tensor<string, []>("input_59_cast_fp16")];
            tensor<fp16, [1, 512, 256]> linear_21_cast_fp16 = linear(bias = lg_transformers_0_cross_attn_ffn_3_bias_to_fp16, weight = lg_transformers_0_cross_attn_ffn_3_weight_to_fp16, x = input_59_cast_fp16)[name = tensor<string, []>("linear_21_cast_fp16")];
            tensor<fp16, [1, 512, 256]> input_73_cast_fp16 = add(x = input_35_cast_fp16, y = linear_21_cast_fp16)[name = tensor<string, []>("input_73_cast_fp16")];
            tensor<fp16, [768, 256]> lg_transformers_1_self_attn_Wqkv_weight_to_fp16 = const()[name = tensor<string, []>("lg_transformers_1_self_attn_Wqkv_weight_to_fp16"), val = tensor<fp16, [768, 256]>(BLOBFILE(path = tensor<string, []>("@model_path/weights/weight.bin"), offset = tensor<uint64, []>(2569344)))];
            tensor<fp16, [768]> lg_transformers_1_self_attn_Wqkv_bias_to_fp16 = const()[name = tensor<string, []>("lg_transformers_1_self_attn_Wqkv_bias_to_fp16"), val = tensor<fp16, [768]>(BLOBFILE(path = tensor<string, []>("@model_path/weights/weight.bin"), offset = tensor<uint64, []>(2962624)))];
            tensor<fp16, [1, 512, 768]> linear_22_cast_fp16 = linear(bias = lg_transformers_1_self_attn_Wqkv_bias_to_fp16, weight = lg_transformers_1_self_attn_Wqkv_weight_to_fp16, x = input_61_cast_fp16)[name = tensor<string, []>("linear_22_cast_fp16")];
            tensor<int32, [5]> concat_32 = const()[name = tensor<string, []>("concat_32"), val = tensor<int32, [5]>([1, 512, 4, -1, 3])];
            tensor<fp16, [1, 512, 4, 64, 3]> var_358_cast_fp16 = reshape(shape = concat_32, x = linear_22_cast_fp16)[name = tensor<string, []>("op_358_cast_fp16")];
            tensor<int32, [5]> qkv_5_perm_0 = const()[name = tensor<string, []>("qkv_5_perm_0"), val = tensor<int32, [5]>([0, 2, 1, 3, 4])];
            tensor<int32, [5]> t_13_begin_0 = const()[name = tensor<string, []>("t_13_begin_0"), val = tensor<int32, [5]>([0, 0, 0, 0, 0])];
            tensor<int32, [5]> t_13_end_0 = const()[name = tensor<string, []>("t_13_end_0"), val = tensor<int32, [5]>([1, 4, 512, 64, 1])];
            tensor<bool, [5]> t_13_end_mask_0 = const()[name = tensor<string, []>("t_13_end_mask_0"), val = tensor<bool, [5]>([true, true, true, true, false])];
            tensor<bool, [5]> t_13_squeeze_mask_0 = const()[name = tensor<string, []>("t_13_squeeze_mask_0"), val = tensor<bool, [5]>([false, false, false, false, true])];
            tensor<fp16, [1, 4, 512, 64, 3]> qkv_5_cast_fp16 = transpose(perm = qkv_5_perm_0, x = var_358_cast_fp16)[name = tensor<string, []>("transpose_188")];
            tensor<fp16, [1, 4, 512, 64]> t_13_cast_fp16 = slice_by_index(begin = t_13_begin_0, end = t_13_end_0, end_mask = t_13_end_mask_0, squeeze_mask = t_13_squeeze_mask_0, x = qkv_5_cast_fp16)[name = tensor<string, []>("t_13_cast_fp16")];
            tensor<int32, [5]> t_15_begin_0 = const()[name = tensor<string, []>("t_15_begin_0"), val = tensor<int32, [5]>([0, 0, 0, 0, 1])];
            tensor<int32, [5]> t_15_end_0 = const()[name = tensor<string, []>("t_15_end_0"), val = tensor<int32, [5]>([1, 4, 512, 64, 2])];
            tensor<bool, [5]> t_15_end_mask_0 = const()[name = tensor<string, []>("t_15_end_mask_0"), val = tensor<bool, [5]>([true, true, true, true, false])];
            tensor<bool, [5]> t_15_squeeze_mask_0 = const()[name = tensor<string, []>("t_15_squeeze_mask_0"), val = tensor<bool, [5]>([false, false, false, false, true])];
            tensor<fp16, [1, 4, 512, 64]> t_15_cast_fp16 = slice_by_index(begin = t_15_begin_0, end = t_15_end_0, end_mask = t_15_end_mask_0, squeeze_mask = t_15_squeeze_mask_0, x = qkv_5_cast_fp16)[name = tensor<string, []>("t_15_cast_fp16")];
            tensor<int32, [5]> v_5_begin_0 = const()[name = tensor<string, []>("v_5_begin_0"), val = tensor<int32, [5]>([0, 0, 0, 0, 2])];
            tensor<int32, [5]> v_5_end_0 = const()[name = tensor<string, []>("v_5_end_0"), val = tensor<int32, [5]>([1, 4, 512, 64, 3])];
            tensor<bool, [5]> v_5_end_mask_0 = const()[name = tensor<string, []>("v_5_end_mask_0"), val = tensor<bool, [5]>([true, true, true, true, false])];
            tensor<bool, [5]> v_5_squeeze_mask_0 = const()[name = tensor<string, []>("v_5_squeeze_mask_0"), val = tensor<bool, [5]>([false, false, false, false, true])];
            tensor<fp16, [1, 4, 512, 64]> v_5_cast_fp16 = slice_by_index(begin = v_5_begin_0, end = v_5_end_0, end_mask = v_5_end_mask_0, squeeze_mask = v_5_squeeze_mask_0, x = qkv_5_cast_fp16)[name = tensor<string, []>("v_5_cast_fp16")];
            tensor<fp16, [1, 4, 512, 64]> var_364_cast_fp16 = mul(x = t_13_cast_fp16, y = var_136_cast_fp16)[name = tensor<string, []>("op_364_cast_fp16")];
            tensor<int32, [5]> concat_33 = const()[name = tensor<string, []>("concat_33"), val = tensor<int32, [5]>([1, 4, 512, -1, 2])];
            tensor<fp16, [1, 4, 512, 32, 2]> x_9_cast_fp16 = reshape(shape = concat_33, x = t_13_cast_fp16)[name = tensor<string, []>("x_9_cast_fp16")];
            tensor<int32, [2]> var_367_split_sizes_0 = const()[name = tensor<string, []>("op_367_split_sizes_0"), val = tensor<int32, [2]>([1, 1])];
            tensor<int32, []> var_367_axis_0 = const()[name = tensor<string, []>("op_367_axis_0"), val = tensor<int32, []>(-1)];
            tensor<fp16, [1, 4, 512, 32, 1]> var_367_cast_fp16_0, tensor<fp16, [1, 4, 512, 32, 1]> var_367_cast_fp16_1 = split(axis = var_367_axis_0, split_sizes = var_367_split_sizes_0, x = x_9_cast_fp16)[name = tensor<string, []>("op_367_cast_fp16")];
            tensor<int32, [1]> squeeze_8_axes_0 = const()[name = tensor<string, []>("squeeze_8_axes_0"), val = tensor<int32, [1]>([-1])];
            tensor<fp16, [1, 4, 512, 32]> squeeze_8_cast_fp16 = squeeze(axes = squeeze_8_axes_0, x = var_367_cast_fp16_0)[name = tensor<string, []>("squeeze_8_cast_fp16")];
            tensor<int32, [1]> squeeze_9_axes_0 = const()[name = tensor<string, []>("squeeze_9_axes_0"), val = tensor<int32, [1]>([-1])];
            tensor<fp16, [1, 4, 512, 32]> squeeze_9_cast_fp16 = squeeze(axes = squeeze_9_axes_0, x = var_367_cast_fp16_1)[name = tensor<string, []>("squeeze_9_cast_fp16")];
            tensor<fp16, []> const_6_promoted_to_fp16 = const()[name = tensor<string, []>("const_6_promoted_to_fp16"), val = tensor<fp16, []>(-0x1p+0)];
            tensor<fp16, [1, 4, 512, 32]> var_370_cast_fp16 = mul(x = squeeze_9_cast_fp16, y = const_6_promoted_to_fp16)[name = tensor<string, []>("op_370_cast_fp16")];
            tensor<int32, []> var_372_axis_0 = const()[name = tensor<string, []>("op_372_axis_0"), val = tensor<int32, []>(-1)];
            tensor<fp16, [1, 4, 512, 32, 2]> var_372_cast_fp16 = stack(axis = var_372_axis_0, values = (var_370_cast_fp16, squeeze_8_cast_fp16))[name = tensor<string, []>("op_372_cast_fp16")];
            tensor<int32, [4]> concat_34 = const()[name = tensor<string, []>("concat_34"), val = tensor<int32, [4]>([1, 4, 512, 64])];
            tensor<fp16, [1, 4, 512, 64]> var_373_cast_fp16 = reshape(shape = concat_34, x = var_372_cast_fp16)[name = tensor<string, []>("op_373_cast_fp16")];
            tensor<fp16, [1, 4, 512, 64]> var_375_cast_fp16 = mul(x = var_373_cast_fp16, y = var_147_cast_fp16)[name = tensor<string, []>("op_375_cast_fp16")];
            tensor<fp16, [1, 4, 512, 64]> q_5_cast_fp16 = add(x = var_364_cast_fp16, y = var_375_cast_fp16)[name = tensor<string, []>("q_5_cast_fp16")];
            tensor<fp16, [1, 4, 512, 64]> var_378_cast_fp16 = mul(x = t_15_cast_fp16, y = var_136_cast_fp16)[name = tensor<string, []>("op_378_cast_fp16")];
            tensor<int32, [5]> concat_35 = const()[name = tensor<string, []>("concat_35"), val = tensor<int32, [5]>([1, 4, 512, -1, 2])];
            tensor<fp16, [1, 4, 512, 32, 2]> x_11_cast_fp16 = reshape(shape = concat_35, x = t_15_cast_fp16)[name = tensor<string, []>("x_11_cast_fp16")];
            tensor<int32, [2]> var_381_split_sizes_0 = const()[name = tensor<string, []>("op_381_split_sizes_0"), val = tensor<int32, [2]>([1, 1])];
            tensor<int32, []> var_381_axis_0 = const()[name = tensor<string, []>("op_381_axis_0"), val = tensor<int32, []>(-1)];
            tensor<fp16, [1, 4, 512, 32, 1]> var_381_cast_fp16_0, tensor<fp16, [1, 4, 512, 32, 1]> var_381_cast_fp16_1 = split(axis = var_381_axis_0, split_sizes = var_381_split_sizes_0, x = x_11_cast_fp16)[name = tensor<string, []>("op_381_cast_fp16")];
            tensor<int32, [1]> squeeze_10_axes_0 = const()[name = tensor<string, []>("squeeze_10_axes_0"), val = tensor<int32, [1]>([-1])];
            tensor<fp16, [1, 4, 512, 32]> squeeze_10_cast_fp16 = squeeze(axes = squeeze_10_axes_0, x = var_381_cast_fp16_0)[name = tensor<string, []>("squeeze_10_cast_fp16")];
            tensor<int32, [1]> squeeze_11_axes_0 = const()[name = tensor<string, []>("squeeze_11_axes_0"), val = tensor<int32, [1]>([-1])];
            tensor<fp16, [1, 4, 512, 32]> squeeze_11_cast_fp16 = squeeze(axes = squeeze_11_axes_0, x = var_381_cast_fp16_1)[name = tensor<string, []>("squeeze_11_cast_fp16")];
            tensor<fp16, []> const_7_promoted_to_fp16 = const()[name = tensor<string, []>("const_7_promoted_to_fp16"), val = tensor<fp16, []>(-0x1p+0)];
            tensor<fp16, [1, 4, 512, 32]> var_384_cast_fp16 = mul(x = squeeze_11_cast_fp16, y = const_7_promoted_to_fp16)[name = tensor<string, []>("op_384_cast_fp16")];
            tensor<int32, []> var_386_axis_0 = const()[name = tensor<string, []>("op_386_axis_0"), val = tensor<int32, []>(-1)];
            tensor<fp16, [1, 4, 512, 32, 2]> var_386_cast_fp16 = stack(axis = var_386_axis_0, values = (var_384_cast_fp16, squeeze_10_cast_fp16))[name = tensor<string, []>("op_386_cast_fp16")];
            tensor<int32, [4]> concat_36 = const()[name = tensor<string, []>("concat_36"), val = tensor<int32, [4]>([1, 4, 512, 64])];
            tensor<fp16, [1, 4, 512, 64]> var_387_cast_fp16 = reshape(shape = concat_36, x = var_386_cast_fp16)[name = tensor<string, []>("op_387_cast_fp16")];
            tensor<fp16, [1, 4, 512, 64]> var_389_cast_fp16 = mul(x = var_387_cast_fp16, y = var_147_cast_fp16)[name = tensor<string, []>("op_389_cast_fp16")];
            tensor<fp16, [1, 4, 512, 64]> k_5_cast_fp16 = add(x = var_378_cast_fp16, y = var_389_cast_fp16)[name = tensor<string, []>("k_5_cast_fp16")];
            tensor<fp16, []> mul_2_y_0_to_fp16 = const()[name = tensor<string, []>("mul_2_y_0_to_fp16"), val = tensor<fp16, []>(0x1p-3)];
            tensor<fp16, [1, 4, 512, 64]> mul_2_cast_fp16 = mul(x = q_5_cast_fp16, y = mul_2_y_0_to_fp16)[name = tensor<string, []>("mul_2_cast_fp16")];
            tensor<bool, []> matmul_3_transpose_y_0 = const()[name = tensor<string, []>("matmul_3_transpose_y_0"), val = tensor<bool, []>(true)];
            tensor<bool, []> matmul_3_transpose_x_0 = const()[name = tensor<string, []>("matmul_3_transpose_x_0"), val = tensor<bool, []>(false)];
            tensor<fp16, [1, 4, 512, 512]> matmul_3_cast_fp16 = matmul(transpose_x = matmul_3_transpose_x_0, transpose_y = matmul_3_transpose_y_0, x = mul_2_cast_fp16, y = k_5_cast_fp16)[name = tensor<string, []>("matmul_3_cast_fp16")];
            tensor<int32, []> softmax_2_axis_0 = const()[name = tensor<string, []>("softmax_2_axis_0"), val = tensor<int32, []>(-1)];
            tensor<fp16, [1, 4, 512, 512]> softmax_2_cast_fp16 = softmax(axis = softmax_2_axis_0, x = matmul_3_cast_fp16)[name = tensor<string, []>("softmax_2_cast_fp16")];
            tensor<bool, []> context_5_transpose_x_0 = const()[name = tensor<string, []>("context_5_transpose_x_0"), val = tensor<bool, []>(false)];
            tensor<bool, []> context_5_transpose_y_0 = const()[name = tensor<string, []>("context_5_transpose_y_0"), val = tensor<bool, []>(false)];
            tensor<fp16, [1, 4, 512, 64]> context_5_cast_fp16 = matmul(transpose_x = context_5_transpose_x_0, transpose_y = context_5_transpose_y_0, x = softmax_2_cast_fp16, y = v_5_cast_fp16)[name = tensor<string, []>("context_5_cast_fp16")];
            tensor<int32, [4]> var_395_perm_0 = const()[name = tensor<string, []>("op_395_perm_0"), val = tensor<int32, [4]>([0, 2, 1, 3])];
            tensor<int32, [3]> concat_37 = const()[name = tensor<string, []>("concat_37"), val = tensor<int32, [3]>([1, 512, 256])];
            tensor<fp16, [1, 512, 4, 64]> var_395_cast_fp16 = transpose(perm = var_395_perm_0, x = context_5_cast_fp16)[name = tensor<string, []>("transpose_187")];
            tensor<fp16, [1, 512, 256]> input_63_cast_fp16 = reshape(shape = concat_37, x = var_395_cast_fp16)[name = tensor<string, []>("input_63_cast_fp16")];
            tensor<fp16, [256, 256]> lg_transformers_1_self_attn_out_proj_weight_to_fp16 = const()[name = tensor<string, []>("lg_transformers_1_self_attn_out_proj_weight_to_fp16"), val = tensor<fp16, [256, 256]>(BLOBFILE(path = tensor<string, []>("@model_path/weights/weight.bin"), offset = tensor<uint64, []>(2964224)))];
            tensor<fp16, [256]> lg_transformers_1_self_attn_out_proj_bias_to_fp16 = const()[name = tensor<string, []>("lg_transformers_1_self_attn_out_proj_bias_to_fp16"), val = tensor<fp16, [256]>(BLOBFILE(path = tensor<string, []>("@model_path/weights/weight.bin"), offset = tensor<uint64, []>(3095360)))];
            tensor<fp16, [1, 512, 256]> linear_23_cast_fp16 = linear(bias = lg_transformers_1_self_attn_out_proj_bias_to_fp16, weight = lg_transformers_1_self_attn_out_proj_weight_to_fp16, x = input_63_cast_fp16)[name = tensor<string, []>("linear_23_cast_fp16")];
            tensor<bool, []> input_65_interleave_0 = const()[name = tensor<string, []>("input_65_interleave_0"), val = tensor<bool, []>(false)];
            tensor<fp16, [1, 512, 512]> input_65_cast_fp16 = concat(axis = var_31, interleave = input_65_interleave_0, values = (input_61_cast_fp16, linear_23_cast_fp16))[name = tensor<string, []>("input_65_cast_fp16")];
            tensor<fp16, [512, 512]> lg_transformers_1_self_attn_ffn_0_weight_to_fp16 = const()[name = tensor<string, []>("lg_transformers_1_self_attn_ffn_0_weight_to_fp16"), val = tensor<fp16, [512, 512]>(BLOBFILE(path = tensor<string, []>("@model_path/weights/weight.bin"), offset = tensor<uint64, []>(3095936)))];
            tensor<fp16, [512]> lg_transformers_1_self_attn_ffn_0_bias_to_fp16 = const()[name = tensor<string, []>("lg_transformers_1_self_attn_ffn_0_bias_to_fp16"), val = tensor<fp16, [512]>(BLOBFILE(path = tensor<string, []>("@model_path/weights/weight.bin"), offset = tensor<uint64, []>(3620288)))];
            tensor<fp16, [1, 512, 512]> linear_24_cast_fp16 = linear(bias = lg_transformers_1_self_attn_ffn_0_bias_to_fp16, weight = lg_transformers_1_self_attn_ffn_0_weight_to_fp16, x = input_65_cast_fp16)[name = tensor<string, []>("linear_24_cast_fp16")];
            tensor<int32, [1]> input_69_axes_0 = const()[name = tensor<string, []>("input_69_axes_0"), val = tensor<int32, [1]>([-1])];
            tensor<fp16, [512]> lg_transformers_1_self_attn_ffn_1_weight_to_fp16 = const()[name = tensor<string, []>("lg_transformers_1_self_attn_ffn_1_weight_to_fp16"), val = tensor<fp16, [512]>(BLOBFILE(path = tensor<string, []>("@model_path/weights/weight.bin"), offset = tensor<uint64, []>(3621376)))];
            tensor<fp16, [512]> lg_transformers_1_self_attn_ffn_1_bias_to_fp16 = const()[name = tensor<string, []>("lg_transformers_1_self_attn_ffn_1_bias_to_fp16"), val = tensor<fp16, [512]>(BLOBFILE(path = tensor<string, []>("@model_path/weights/weight.bin"), offset = tensor<uint64, []>(3622464)))];
            tensor<fp16, [1, 512, 512]> input_69_cast_fp16 = layer_norm(axes = input_69_axes_0, beta = lg_transformers_1_self_attn_ffn_1_bias_to_fp16, epsilon = var_16_to_fp16, gamma = lg_transformers_1_self_attn_ffn_1_weight_to_fp16, x = linear_24_cast_fp16)[name = tensor<string, []>("input_69_cast_fp16")];
            tensor<string, []> input_71_mode_0 = const()[name = tensor<string, []>("input_71_mode_0"), val = tensor<string, []>("EXACT")];
            tensor<fp16, [1, 512, 512]> input_71_cast_fp16 = gelu(mode = input_71_mode_0, x = input_69_cast_fp16)[name = tensor<string, []>("input_71_cast_fp16")];
            tensor<fp16, [256, 512]> lg_transformers_1_self_attn_ffn_3_weight_to_fp16 = const()[name = tensor<string, []>("lg_transformers_1_self_attn_ffn_3_weight_to_fp16"), val = tensor<fp16, [256, 512]>(BLOBFILE(path = tensor<string, []>("@model_path/weights/weight.bin"), offset = tensor<uint64, []>(3623552)))];
            tensor<fp16, [256]> lg_transformers_1_self_attn_ffn_3_bias_to_fp16 = const()[name = tensor<string, []>("lg_transformers_1_self_attn_ffn_3_bias_to_fp16"), val = tensor<fp16, [256]>(BLOBFILE(path = tensor<string, []>("@model_path/weights/weight.bin"), offset = tensor<uint64, []>(3885760)))];
            tensor<fp16, [1, 512, 256]> linear_25_cast_fp16 = linear(bias = lg_transformers_1_self_attn_ffn_3_bias_to_fp16, weight = lg_transformers_1_self_attn_ffn_3_weight_to_fp16, x = input_71_cast_fp16)[name = tensor<string, []>("linear_25_cast_fp16")];
            tensor<fp16, [1, 512, 256]> input_85_cast_fp16 = add(x = input_61_cast_fp16, y = linear_25_cast_fp16)[name = tensor<string, []>("input_85_cast_fp16")];
            tensor<fp16, [1, 512, 768]> linear_26_cast_fp16 = linear(bias = lg_transformers_1_self_attn_Wqkv_bias_to_fp16, weight = lg_transformers_1_self_attn_Wqkv_weight_to_fp16, x = input_73_cast_fp16)[name = tensor<string, []>("linear_26_cast_fp16")];
            tensor<int32, [5]> concat_38 = const()[name = tensor<string, []>("concat_38"), val = tensor<int32, [5]>([1, 512, 4, -1, 3])];
            tensor<fp16, [1, 512, 4, 64, 3]> var_424_cast_fp16 = reshape(shape = concat_38, x = linear_26_cast_fp16)[name = tensor<string, []>("op_424_cast_fp16")];
            tensor<int32, [5]> qkv_7_perm_0 = const()[name = tensor<string, []>("qkv_7_perm_0"), val = tensor<int32, [5]>([0, 2, 1, 3, 4])];
            tensor<int32, [5]> t_17_begin_0 = const()[name = tensor<string, []>("t_17_begin_0"), val = tensor<int32, [5]>([0, 0, 0, 0, 0])];
            tensor<int32, [5]> t_17_end_0 = const()[name = tensor<string, []>("t_17_end_0"), val = tensor<int32, [5]>([1, 4, 512, 64, 1])];
            tensor<bool, [5]> t_17_end_mask_0 = const()[name = tensor<string, []>("t_17_end_mask_0"), val = tensor<bool, [5]>([true, true, true, true, false])];
            tensor<bool, [5]> t_17_squeeze_mask_0 = const()[name = tensor<string, []>("t_17_squeeze_mask_0"), val = tensor<bool, [5]>([false, false, false, false, true])];
            tensor<fp16, [1, 4, 512, 64, 3]> qkv_7_cast_fp16 = transpose(perm = qkv_7_perm_0, x = var_424_cast_fp16)[name = tensor<string, []>("transpose_186")];
            tensor<fp16, [1, 4, 512, 64]> t_17_cast_fp16 = slice_by_index(begin = t_17_begin_0, end = t_17_end_0, end_mask = t_17_end_mask_0, squeeze_mask = t_17_squeeze_mask_0, x = qkv_7_cast_fp16)[name = tensor<string, []>("t_17_cast_fp16")];
            tensor<int32, [5]> t_19_begin_0 = const()[name = tensor<string, []>("t_19_begin_0"), val = tensor<int32, [5]>([0, 0, 0, 0, 1])];
            tensor<int32, [5]> t_19_end_0 = const()[name = tensor<string, []>("t_19_end_0"), val = tensor<int32, [5]>([1, 4, 512, 64, 2])];
            tensor<bool, [5]> t_19_end_mask_0 = const()[name = tensor<string, []>("t_19_end_mask_0"), val = tensor<bool, [5]>([true, true, true, true, false])];
            tensor<bool, [5]> t_19_squeeze_mask_0 = const()[name = tensor<string, []>("t_19_squeeze_mask_0"), val = tensor<bool, [5]>([false, false, false, false, true])];
            tensor<fp16, [1, 4, 512, 64]> t_19_cast_fp16 = slice_by_index(begin = t_19_begin_0, end = t_19_end_0, end_mask = t_19_end_mask_0, squeeze_mask = t_19_squeeze_mask_0, x = qkv_7_cast_fp16)[name = tensor<string, []>("t_19_cast_fp16")];
            tensor<int32, [5]> v_7_begin_0 = const()[name = tensor<string, []>("v_7_begin_0"), val = tensor<int32, [5]>([0, 0, 0, 0, 2])];
            tensor<int32, [5]> v_7_end_0 = const()[name = tensor<string, []>("v_7_end_0"), val = tensor<int32, [5]>([1, 4, 512, 64, 3])];
            tensor<bool, [5]> v_7_end_mask_0 = const()[name = tensor<string, []>("v_7_end_mask_0"), val = tensor<bool, [5]>([true, true, true, true, false])];
            tensor<bool, [5]> v_7_squeeze_mask_0 = const()[name = tensor<string, []>("v_7_squeeze_mask_0"), val = tensor<bool, [5]>([false, false, false, false, true])];
            tensor<fp16, [1, 4, 512, 64]> v_7_cast_fp16 = slice_by_index(begin = v_7_begin_0, end = v_7_end_0, end_mask = v_7_end_mask_0, squeeze_mask = v_7_squeeze_mask_0, x = qkv_7_cast_fp16)[name = tensor<string, []>("v_7_cast_fp16")];
            tensor<fp16, [1, 4, 512, 64]> var_430_cast_fp16 = mul(x = t_17_cast_fp16, y = var_202_cast_fp16)[name = tensor<string, []>("op_430_cast_fp16")];
            tensor<int32, [5]> concat_39 = const()[name = tensor<string, []>("concat_39"), val = tensor<int32, [5]>([1, 4, 512, -1, 2])];
            tensor<fp16, [1, 4, 512, 32, 2]> x_13_cast_fp16 = reshape(shape = concat_39, x = t_17_cast_fp16)[name = tensor<string, []>("x_13_cast_fp16")];
            tensor<int32, [2]> var_433_split_sizes_0 = const()[name = tensor<string, []>("op_433_split_sizes_0"), val = tensor<int32, [2]>([1, 1])];
            tensor<int32, []> var_433_axis_0 = const()[name = tensor<string, []>("op_433_axis_0"), val = tensor<int32, []>(-1)];
            tensor<fp16, [1, 4, 512, 32, 1]> var_433_cast_fp16_0, tensor<fp16, [1, 4, 512, 32, 1]> var_433_cast_fp16_1 = split(axis = var_433_axis_0, split_sizes = var_433_split_sizes_0, x = x_13_cast_fp16)[name = tensor<string, []>("op_433_cast_fp16")];
            tensor<int32, [1]> squeeze_12_axes_0 = const()[name = tensor<string, []>("squeeze_12_axes_0"), val = tensor<int32, [1]>([-1])];
            tensor<fp16, [1, 4, 512, 32]> squeeze_12_cast_fp16 = squeeze(axes = squeeze_12_axes_0, x = var_433_cast_fp16_0)[name = tensor<string, []>("squeeze_12_cast_fp16")];
            tensor<int32, [1]> squeeze_13_axes_0 = const()[name = tensor<string, []>("squeeze_13_axes_0"), val = tensor<int32, [1]>([-1])];
            tensor<fp16, [1, 4, 512, 32]> squeeze_13_cast_fp16 = squeeze(axes = squeeze_13_axes_0, x = var_433_cast_fp16_1)[name = tensor<string, []>("squeeze_13_cast_fp16")];
            tensor<fp16, []> const_8_promoted_to_fp16 = const()[name = tensor<string, []>("const_8_promoted_to_fp16"), val = tensor<fp16, []>(-0x1p+0)];
            tensor<fp16, [1, 4, 512, 32]> var_436_cast_fp16 = mul(x = squeeze_13_cast_fp16, y = const_8_promoted_to_fp16)[name = tensor<string, []>("op_436_cast_fp16")];
            tensor<int32, []> var_438_axis_0 = const()[name = tensor<string, []>("op_438_axis_0"), val = tensor<int32, []>(-1)];
            tensor<fp16, [1, 4, 512, 32, 2]> var_438_cast_fp16 = stack(axis = var_438_axis_0, values = (var_436_cast_fp16, squeeze_12_cast_fp16))[name = tensor<string, []>("op_438_cast_fp16")];
            tensor<int32, [4]> concat_40 = const()[name = tensor<string, []>("concat_40"), val = tensor<int32, [4]>([1, 4, 512, 64])];
            tensor<fp16, [1, 4, 512, 64]> var_439_cast_fp16 = reshape(shape = concat_40, x = var_438_cast_fp16)[name = tensor<string, []>("op_439_cast_fp16")];
            tensor<fp16, [1, 4, 512, 64]> var_441_cast_fp16 = mul(x = var_439_cast_fp16, y = var_213_cast_fp16)[name = tensor<string, []>("op_441_cast_fp16")];
            tensor<fp16, [1, 4, 512, 64]> q_7_cast_fp16 = add(x = var_430_cast_fp16, y = var_441_cast_fp16)[name = tensor<string, []>("q_7_cast_fp16")];
            tensor<fp16, [1, 4, 512, 64]> var_444_cast_fp16 = mul(x = t_19_cast_fp16, y = var_202_cast_fp16)[name = tensor<string, []>("op_444_cast_fp16")];
            tensor<int32, [5]> concat_41 = const()[name = tensor<string, []>("concat_41"), val = tensor<int32, [5]>([1, 4, 512, -1, 2])];
            tensor<fp16, [1, 4, 512, 32, 2]> x_15_cast_fp16 = reshape(shape = concat_41, x = t_19_cast_fp16)[name = tensor<string, []>("x_15_cast_fp16")];
            tensor<int32, [2]> var_447_split_sizes_0 = const()[name = tensor<string, []>("op_447_split_sizes_0"), val = tensor<int32, [2]>([1, 1])];
            tensor<int32, []> var_447_axis_0 = const()[name = tensor<string, []>("op_447_axis_0"), val = tensor<int32, []>(-1)];
            tensor<fp16, [1, 4, 512, 32, 1]> var_447_cast_fp16_0, tensor<fp16, [1, 4, 512, 32, 1]> var_447_cast_fp16_1 = split(axis = var_447_axis_0, split_sizes = var_447_split_sizes_0, x = x_15_cast_fp16)[name = tensor<string, []>("op_447_cast_fp16")];
            tensor<int32, [1]> squeeze_14_axes_0 = const()[name = tensor<string, []>("squeeze_14_axes_0"), val = tensor<int32, [1]>([-1])];
            tensor<fp16, [1, 4, 512, 32]> squeeze_14_cast_fp16 = squeeze(axes = squeeze_14_axes_0, x = var_447_cast_fp16_0)[name = tensor<string, []>("squeeze_14_cast_fp16")];
            tensor<int32, [1]> squeeze_15_axes_0 = const()[name = tensor<string, []>("squeeze_15_axes_0"), val = tensor<int32, [1]>([-1])];
            tensor<fp16, [1, 4, 512, 32]> squeeze_15_cast_fp16 = squeeze(axes = squeeze_15_axes_0, x = var_447_cast_fp16_1)[name = tensor<string, []>("squeeze_15_cast_fp16")];
            tensor<fp16, []> const_9_promoted_to_fp16 = const()[name = tensor<string, []>("const_9_promoted_to_fp16"), val = tensor<fp16, []>(-0x1p+0)];
            tensor<fp16, [1, 4, 512, 32]> var_450_cast_fp16 = mul(x = squeeze_15_cast_fp16, y = const_9_promoted_to_fp16)[name = tensor<string, []>("op_450_cast_fp16")];
            tensor<int32, []> var_452_axis_0 = const()[name = tensor<string, []>("op_452_axis_0"), val = tensor<int32, []>(-1)];
            tensor<fp16, [1, 4, 512, 32, 2]> var_452_cast_fp16 = stack(axis = var_452_axis_0, values = (var_450_cast_fp16, squeeze_14_cast_fp16))[name = tensor<string, []>("op_452_cast_fp16")];
            tensor<int32, [4]> concat_42 = const()[name = tensor<string, []>("concat_42"), val = tensor<int32, [4]>([1, 4, 512, 64])];
            tensor<fp16, [1, 4, 512, 64]> var_453_cast_fp16 = reshape(shape = concat_42, x = var_452_cast_fp16)[name = tensor<string, []>("op_453_cast_fp16")];
            tensor<fp16, [1, 4, 512, 64]> var_455_cast_fp16 = mul(x = var_453_cast_fp16, y = var_213_cast_fp16)[name = tensor<string, []>("op_455_cast_fp16")];
            tensor<fp16, [1, 4, 512, 64]> k_7_cast_fp16 = add(x = var_444_cast_fp16, y = var_455_cast_fp16)[name = tensor<string, []>("k_7_cast_fp16")];
            tensor<fp16, []> mul_3_y_0_to_fp16 = const()[name = tensor<string, []>("mul_3_y_0_to_fp16"), val = tensor<fp16, []>(0x1p-3)];
            tensor<fp16, [1, 4, 512, 64]> mul_3_cast_fp16 = mul(x = q_7_cast_fp16, y = mul_3_y_0_to_fp16)[name = tensor<string, []>("mul_3_cast_fp16")];
            tensor<bool, []> matmul_4_transpose_y_0 = const()[name = tensor<string, []>("matmul_4_transpose_y_0"), val = tensor<bool, []>(true)];
            tensor<bool, []> matmul_4_transpose_x_0 = const()[name = tensor<string, []>("matmul_4_transpose_x_0"), val = tensor<bool, []>(false)];
            tensor<fp16, [1, 4, 512, 512]> matmul_4_cast_fp16 = matmul(transpose_x = matmul_4_transpose_x_0, transpose_y = matmul_4_transpose_y_0, x = mul_3_cast_fp16, y = k_7_cast_fp16)[name = tensor<string, []>("matmul_4_cast_fp16")];
            tensor<int32, []> softmax_3_axis_0 = const()[name = tensor<string, []>("softmax_3_axis_0"), val = tensor<int32, []>(-1)];
            tensor<fp16, [1, 4, 512, 512]> softmax_3_cast_fp16 = softmax(axis = softmax_3_axis_0, x = matmul_4_cast_fp16)[name = tensor<string, []>("softmax_3_cast_fp16")];
            tensor<bool, []> context_7_transpose_x_0 = const()[name = tensor<string, []>("context_7_transpose_x_0"), val = tensor<bool, []>(false)];
            tensor<bool, []> context_7_transpose_y_0 = const()[name = tensor<string, []>("context_7_transpose_y_0"), val = tensor<bool, []>(false)];
            tensor<fp16, [1, 4, 512, 64]> context_7_cast_fp16 = matmul(transpose_x = context_7_transpose_x_0, transpose_y = context_7_transpose_y_0, x = softmax_3_cast_fp16, y = v_7_cast_fp16)[name = tensor<string, []>("context_7_cast_fp16")];
            tensor<int32, [4]> var_461_perm_0 = const()[name = tensor<string, []>("op_461_perm_0"), val = tensor<int32, [4]>([0, 2, 1, 3])];
            tensor<int32, [3]> concat_43 = const()[name = tensor<string, []>("concat_43"), val = tensor<int32, [3]>([1, 512, 256])];
            tensor<fp16, [1, 512, 4, 64]> var_461_cast_fp16 = transpose(perm = var_461_perm_0, x = context_7_cast_fp16)[name = tensor<string, []>("transpose_185")];
            tensor<fp16, [1, 512, 256]> input_75_cast_fp16 = reshape(shape = concat_43, x = var_461_cast_fp16)[name = tensor<string, []>("input_75_cast_fp16")];
            tensor<fp16, [1, 512, 256]> linear_27_cast_fp16 = linear(bias = lg_transformers_1_self_attn_out_proj_bias_to_fp16, weight = lg_transformers_1_self_attn_out_proj_weight_to_fp16, x = input_75_cast_fp16)[name = tensor<string, []>("linear_27_cast_fp16")];
            tensor<bool, []> input_77_interleave_0 = const()[name = tensor<string, []>("input_77_interleave_0"), val = tensor<bool, []>(false)];
            tensor<fp16, [1, 512, 512]> input_77_cast_fp16 = concat(axis = var_31, interleave = input_77_interleave_0, values = (input_73_cast_fp16, linear_27_cast_fp16))[name = tensor<string, []>("input_77_cast_fp16")];
            tensor<fp16, [1, 512, 512]> linear_28_cast_fp16 = linear(bias = lg_transformers_1_self_attn_ffn_0_bias_to_fp16, weight = lg_transformers_1_self_attn_ffn_0_weight_to_fp16, x = input_77_cast_fp16)[name = tensor<string, []>("linear_28_cast_fp16")];
            tensor<int32, [1]> input_81_axes_0 = const()[name = tensor<string, []>("input_81_axes_0"), val = tensor<int32, [1]>([-1])];
            tensor<fp16, [1, 512, 512]> input_81_cast_fp16 = layer_norm(axes = input_81_axes_0, beta = lg_transformers_1_self_attn_ffn_1_bias_to_fp16, epsilon = var_16_to_fp16, gamma = lg_transformers_1_self_attn_ffn_1_weight_to_fp16, x = linear_28_cast_fp16)[name = tensor<string, []>("input_81_cast_fp16")];
            tensor<string, []> input_83_mode_0 = const()[name = tensor<string, []>("input_83_mode_0"), val = tensor<string, []>("EXACT")];
            tensor<fp16, [1, 512, 512]> input_83_cast_fp16 = gelu(mode = input_83_mode_0, x = input_81_cast_fp16)[name = tensor<string, []>("input_83_cast_fp16")];
            tensor<fp16, [1, 512, 256]> linear_29_cast_fp16 = linear(bias = lg_transformers_1_self_attn_ffn_3_bias_to_fp16, weight = lg_transformers_1_self_attn_ffn_3_weight_to_fp16, x = input_83_cast_fp16)[name = tensor<string, []>("linear_29_cast_fp16")];
            tensor<fp16, [1, 512, 256]> input_87_cast_fp16 = add(x = input_73_cast_fp16, y = linear_29_cast_fp16)[name = tensor<string, []>("input_87_cast_fp16")];
            tensor<fp16, [256, 256]> lg_transformers_1_cross_attn_to_qk_weight_to_fp16 = const()[name = tensor<string, []>("lg_transformers_1_cross_attn_to_qk_weight_to_fp16"), val = tensor<fp16, [256, 256]>(BLOBFILE(path = tensor<string, []>("@model_path/weights/weight.bin"), offset = tensor<uint64, []>(3886336)))];
            tensor<fp16, [256]> lg_transformers_1_cross_attn_to_qk_bias_to_fp16 = const()[name = tensor<string, []>("lg_transformers_1_cross_attn_to_qk_bias_to_fp16"), val = tensor<fp16, [256]>(BLOBFILE(path = tensor<string, []>("@model_path/weights/weight.bin"), offset = tensor<uint64, []>(4017472)))];
            tensor<fp16, [1, 512, 256]> linear_30_cast_fp16 = linear(bias = lg_transformers_1_cross_attn_to_qk_bias_to_fp16, weight = lg_transformers_1_cross_attn_to_qk_weight_to_fp16, x = input_85_cast_fp16)[name = tensor<string, []>("linear_30_cast_fp16")];
            tensor<fp16, [1, 512, 256]> linear_31_cast_fp16 = linear(bias = lg_transformers_1_cross_attn_to_qk_bias_to_fp16, weight = lg_transformers_1_cross_attn_to_qk_weight_to_fp16, x = input_87_cast_fp16)[name = tensor<string, []>("linear_31_cast_fp16")];
            tensor<fp16, [256, 256]> lg_transformers_1_cross_attn_to_v_weight_to_fp16 = const()[name = tensor<string, []>("lg_transformers_1_cross_attn_to_v_weight_to_fp16"), val = tensor<fp16, [256, 256]>(BLOBFILE(path = tensor<string, []>("@model_path/weights/weight.bin"), offset = tensor<uint64, []>(4018048)))];
            tensor<fp16, [256]> lg_transformers_1_cross_attn_to_v_bias_to_fp16 = const()[name = tensor<string, []>("lg_transformers_1_cross_attn_to_v_bias_to_fp16"), val = tensor<fp16, [256]>(BLOBFILE(path = tensor<string, []>("@model_path/weights/weight.bin"), offset = tensor<uint64, []>(4149184)))];
            tensor<fp16, [1, 512, 256]> linear_32_cast_fp16 = linear(bias = lg_transformers_1_cross_attn_to_v_bias_to_fp16, weight = lg_transformers_1_cross_attn_to_v_weight_to_fp16, x = input_85_cast_fp16)[name = tensor<string, []>("linear_32_cast_fp16")];
            tensor<fp16, [1, 512, 256]> linear_33_cast_fp16 = linear(bias = lg_transformers_1_cross_attn_to_v_bias_to_fp16, weight = lg_transformers_1_cross_attn_to_v_weight_to_fp16, x = input_87_cast_fp16)[name = tensor<string, []>("linear_33_cast_fp16")];
            tensor<int32, [4]> concat_44 = const()[name = tensor<string, []>("concat_44"), val = tensor<int32, [4]>([1, 512, 4, -1])];
            tensor<fp16, [1, 512, 4, 64]> var_500_cast_fp16 = reshape(shape = concat_44, x = linear_30_cast_fp16)[name = tensor<string, []>("op_500_cast_fp16")];
            tensor<int32, [4]> concat_45 = const()[name = tensor<string, []>("concat_45"), val = tensor<int32, [4]>([1, 512, 4, -1])];
            tensor<fp16, [1, 512, 4, 64]> var_503_cast_fp16 = reshape(shape = concat_45, x = linear_31_cast_fp16)[name = tensor<string, []>("op_503_cast_fp16")];
            tensor<int32, [4]> concat_46 = const()[name = tensor<string, []>("concat_46"), val = tensor<int32, [4]>([1, 512, 4, -1])];
            tensor<fp16, [1, 512, 4, 64]> var_506_cast_fp16 = reshape(shape = concat_46, x = linear_32_cast_fp16)[name = tensor<string, []>("op_506_cast_fp16")];
            tensor<int32, [4]> concat_47 = const()[name = tensor<string, []>("concat_47"), val = tensor<int32, [4]>([1, 512, 4, -1])];
            tensor<fp16, [1, 512, 4, 64]> var_509_cast_fp16 = reshape(shape = concat_47, x = linear_33_cast_fp16)[name = tensor<string, []>("op_509_cast_fp16")];
            tensor<int32, [4]> var_510_perm_0 = const()[name = tensor<string, []>("op_510_perm_0"), val = tensor<int32, [4]>([0, 2, 1, 3])];
            tensor<fp16, []> var_511_to_fp16 = const()[name = tensor<string, []>("op_511_to_fp16"), val = tensor<fp16, []>(0x1.6ap-2)];
            tensor<fp16, [1, 512, 4, 64]> var_512_cast_fp16 = mul(x = var_500_cast_fp16, y = var_511_to_fp16)[name = tensor<string, []>("op_512_cast_fp16")];
            tensor<fp16, []> var_513_to_fp16 = const()[name = tensor<string, []>("op_513_to_fp16"), val = tensor<fp16, []>(0x1.6ap-2)];
            tensor<fp16, [1, 512, 4, 64]> var_514_cast_fp16 = mul(x = var_503_cast_fp16, y = var_513_to_fp16)[name = tensor<string, []>("op_514_cast_fp16")];
            tensor<bool, []> input_89_transpose_x_0 = const()[name = tensor<string, []>("input_89_transpose_x_0"), val = tensor<bool, []>(false)];
            tensor<bool, []> input_89_transpose_y_0 = const()[name = tensor<string, []>("input_89_transpose_y_0"), val = tensor<bool, []>(true)];
            tensor<int32, [4]> transpose_82_perm_0 = const()[name = tensor<string, []>("transpose_82_perm_0"), val = tensor<int32, [4]>([0, 2, -3, -1])];
            tensor<int32, [4]> transpose_83_perm_0 = const()[name = tensor<string, []>("transpose_83_perm_0"), val = tensor<int32, [4]>([0, 2, -3, -1])];
            tensor<fp16, [1, 4, 512, 64]> transpose_83 = transpose(perm = transpose_83_perm_0, x = var_514_cast_fp16)[name = tensor<string, []>("transpose_182")];
            tensor<fp16, [1, 4, 512, 64]> transpose_82 = transpose(perm = transpose_82_perm_0, x = var_512_cast_fp16)[name = tensor<string, []>("transpose_183")];
            tensor<fp16, [1, 4, 512, 512]> input_89_cast_fp16 = matmul(transpose_x = input_89_transpose_x_0, transpose_y = input_89_transpose_y_0, x = transpose_82, y = transpose_83)[name = tensor<string, []>("input_89_cast_fp16")];
            tensor<fp16, [1, 4, 512, 512]> var_517_cast_fp16 = softmax(axis = var_31, x = input_89_cast_fp16)[name = tensor<string, []>("op_517_cast_fp16")];
            tensor<int32, [4]> var_518_perm_0 = const()[name = tensor<string, []>("op_518_perm_0"), val = tensor<int32, [4]>([0, 1, -1, -2])];
            tensor<fp16, [1, 4, 512, 512]> var_518_cast_fp16 = transpose(perm = var_518_perm_0, x = input_89_cast_fp16)[name = tensor<string, []>("transpose_181")];
            tensor<fp16, [1, 4, 512, 512]> attn10_3_cast_fp16 = softmax(axis = var_31, x = var_518_cast_fp16)[name = tensor<string, []>("attn10_3_cast_fp16")];
            tensor<int32, [3]> concat_52 = const()[name = tensor<string, []>("concat_52"), val = tensor<int32, [3]>([4, 512, 512])];
            tensor<fp16, [4, 512, 512]> reshape_7_cast_fp16 = reshape(shape = concat_52, x = var_517_cast_fp16)[name = tensor<string, []>("reshape_7_cast_fp16")];
            tensor<int32, [3]> concat_53 = const()[name = tensor<string, []>("concat_53"), val = tensor<int32, [3]>([4, 512, 64])];
            tensor<fp16, [1, 4, 512, 64]> var_510_cast_fp16 = transpose(perm = var_510_perm_0, x = var_509_cast_fp16)[name = tensor<string, []>("transpose_184")];
            tensor<fp16, [4, 512, 64]> reshape_8_cast_fp16 = reshape(shape = concat_53, x = var_510_cast_fp16)[name = tensor<string, []>("reshape_8_cast_fp16")];
            tensor<bool, []> matmul_5_transpose_x_0 = const()[name = tensor<string, []>("matmul_5_transpose_x_0"), val = tensor<bool, []>(false)];
            tensor<bool, []> matmul_5_transpose_y_0 = const()[name = tensor<string, []>("matmul_5_transpose_y_0"), val = tensor<bool, []>(false)];
            tensor<fp16, [4, 512, 64]> matmul_5_cast_fp16 = matmul(transpose_x = matmul_5_transpose_x_0, transpose_y = matmul_5_transpose_y_0, x = reshape_7_cast_fp16, y = reshape_8_cast_fp16)[name = tensor<string, []>("matmul_5_cast_fp16")];
            tensor<int32, [4]> concat_57 = const()[name = tensor<string, []>("concat_57"), val = tensor<int32, [4]>([1, 4, 512, 64])];
            tensor<fp16, [1, 4, 512, 64]> reshape_9_cast_fp16 = reshape(shape = concat_57, x = matmul_5_cast_fp16)[name = tensor<string, []>("reshape_9_cast_fp16")];
            tensor<int32, [4]> transpose_31_perm_0 = const()[name = tensor<string, []>("transpose_31_perm_0"), val = tensor<int32, [4]>([0, 2, 1, 3])];
            tensor<bool, []> t_23_transpose_x_1 = const()[name = tensor<string, []>("t_23_transpose_x_1"), val = tensor<bool, []>(false)];
            tensor<bool, []> t_23_transpose_y_1 = const()[name = tensor<string, []>("t_23_transpose_y_1"), val = tensor<bool, []>(false)];
            tensor<fp16, [1, 4, 512, 64]> transpose_31_cast_fp16 = transpose(perm = transpose_31_perm_0, x = var_506_cast_fp16)[name = tensor<string, []>("transpose_180")];
            tensor<fp16, [1, 4, 512, 64]> t_23_cast_fp16 = matmul(transpose_x = t_23_transpose_x_1, transpose_y = t_23_transpose_y_1, x = attn10_3_cast_fp16, y = transpose_31_cast_fp16)[name = tensor<string, []>("t_23_cast_fp16")];
            tensor<int32, [4]> var_526_perm_0 = const()[name = tensor<string, []>("op_526_perm_0"), val = tensor<int32, [4]>([0, 2, 1, 3])];
            tensor<int32, [3]> concat_58 = const()[name = tensor<string, []>("concat_58"), val = tensor<int32, [3]>([1, 512, 256])];
            tensor<fp16, [1, 512, 4, 64]> var_526_cast_fp16 = transpose(perm = var_526_perm_0, x = reshape_9_cast_fp16)[name = tensor<string, []>("transpose_179")];
            tensor<fp16, [1, 512, 256]> input_93_cast_fp16 = reshape(shape = concat_58, x = var_526_cast_fp16)[name = tensor<string, []>("input_93_cast_fp16")];
            tensor<int32, [4]> var_528_perm_0 = const()[name = tensor<string, []>("op_528_perm_0"), val = tensor<int32, [4]>([0, 2, 1, 3])];
            tensor<int32, [3]> concat_59 = const()[name = tensor<string, []>("concat_59"), val = tensor<int32, [3]>([1, 512, 256])];
            tensor<fp16, [1, 512, 4, 64]> var_528_cast_fp16 = transpose(perm = var_528_perm_0, x = t_23_cast_fp16)[name = tensor<string, []>("transpose_178")];
            tensor<fp16, [1, 512, 256]> input_95_cast_fp16 = reshape(shape = concat_59, x = var_528_cast_fp16)[name = tensor<string, []>("input_95_cast_fp16")];
            tensor<fp16, [256, 256]> lg_transformers_1_cross_attn_to_out_weight_to_fp16 = const()[name = tensor<string, []>("lg_transformers_1_cross_attn_to_out_weight_to_fp16"), val = tensor<fp16, [256, 256]>(BLOBFILE(path = tensor<string, []>("@model_path/weights/weight.bin"), offset = tensor<uint64, []>(4149760)))];
            tensor<fp16, [256]> lg_transformers_1_cross_attn_to_out_bias_to_fp16 = const()[name = tensor<string, []>("lg_transformers_1_cross_attn_to_out_bias_to_fp16"), val = tensor<fp16, [256]>(BLOBFILE(path = tensor<string, []>("@model_path/weights/weight.bin"), offset = tensor<uint64, []>(4280896)))];
            tensor<fp16, [1, 512, 256]> linear_34_cast_fp16 = linear(bias = lg_transformers_1_cross_attn_to_out_bias_to_fp16, weight = lg_transformers_1_cross_attn_to_out_weight_to_fp16, x = input_93_cast_fp16)[name = tensor<string, []>("linear_34_cast_fp16")];
            tensor<fp16, [1, 512, 256]> linear_35_cast_fp16 = linear(bias = lg_transformers_1_cross_attn_to_out_bias_to_fp16, weight = lg_transformers_1_cross_attn_to_out_weight_to_fp16, x = input_95_cast_fp16)[name = tensor<string, []>("linear_35_cast_fp16")];
            tensor<bool, []> input_97_interleave_0 = const()[name = tensor<string, []>("input_97_interleave_0"), val = tensor<bool, []>(false)];
            tensor<fp16, [1, 512, 512]> input_97_cast_fp16 = concat(axis = var_31, interleave = input_97_interleave_0, values = (input_85_cast_fp16, linear_34_cast_fp16))[name = tensor<string, []>("input_97_cast_fp16")];
            tensor<fp16, [512, 512]> lg_transformers_1_cross_attn_ffn_0_weight_to_fp16 = const()[name = tensor<string, []>("lg_transformers_1_cross_attn_ffn_0_weight_to_fp16"), val = tensor<fp16, [512, 512]>(BLOBFILE(path = tensor<string, []>("@model_path/weights/weight.bin"), offset = tensor<uint64, []>(4281472)))];
            tensor<fp16, [512]> lg_transformers_1_cross_attn_ffn_0_bias_to_fp16 = const()[name = tensor<string, []>("lg_transformers_1_cross_attn_ffn_0_bias_to_fp16"), val = tensor<fp16, [512]>(BLOBFILE(path = tensor<string, []>("@model_path/weights/weight.bin"), offset = tensor<uint64, []>(4805824)))];
            tensor<fp16, [1, 512, 512]> linear_36_cast_fp16 = linear(bias = lg_transformers_1_cross_attn_ffn_0_bias_to_fp16, weight = lg_transformers_1_cross_attn_ffn_0_weight_to_fp16, x = input_97_cast_fp16)[name = tensor<string, []>("linear_36_cast_fp16")];
            tensor<int32, [1]> input_101_axes_0 = const()[name = tensor<string, []>("input_101_axes_0"), val = tensor<int32, [1]>([-1])];
            tensor<fp16, [512]> lg_transformers_1_cross_attn_ffn_1_weight_to_fp16 = const()[name = tensor<string, []>("lg_transformers_1_cross_attn_ffn_1_weight_to_fp16"), val = tensor<fp16, [512]>(BLOBFILE(path = tensor<string, []>("@model_path/weights/weight.bin"), offset = tensor<uint64, []>(4806912)))];
            tensor<fp16, [512]> lg_transformers_1_cross_attn_ffn_1_bias_to_fp16 = const()[name = tensor<string, []>("lg_transformers_1_cross_attn_ffn_1_bias_to_fp16"), val = tensor<fp16, [512]>(BLOBFILE(path = tensor<string, []>("@model_path/weights/weight.bin"), offset = tensor<uint64, []>(4808000)))];
            tensor<fp16, [1, 512, 512]> input_101_cast_fp16 = layer_norm(axes = input_101_axes_0, beta = lg_transformers_1_cross_attn_ffn_1_bias_to_fp16, epsilon = var_16_to_fp16, gamma = lg_transformers_1_cross_attn_ffn_1_weight_to_fp16, x = linear_36_cast_fp16)[name = tensor<string, []>("input_101_cast_fp16")];
            tensor<string, []> input_103_mode_0 = const()[name = tensor<string, []>("input_103_mode_0"), val = tensor<string, []>("EXACT")];
            tensor<fp16, [1, 512, 512]> input_103_cast_fp16 = gelu(mode = input_103_mode_0, x = input_101_cast_fp16)[name = tensor<string, []>("input_103_cast_fp16")];
            tensor<fp16, [256, 512]> lg_transformers_1_cross_attn_ffn_3_weight_to_fp16 = const()[name = tensor<string, []>("lg_transformers_1_cross_attn_ffn_3_weight_to_fp16"), val = tensor<fp16, [256, 512]>(BLOBFILE(path = tensor<string, []>("@model_path/weights/weight.bin"), offset = tensor<uint64, []>(4809088)))];
            tensor<fp16, [256]> lg_transformers_1_cross_attn_ffn_3_bias_to_fp16 = const()[name = tensor<string, []>("lg_transformers_1_cross_attn_ffn_3_bias_to_fp16"), val = tensor<fp16, [256]>(BLOBFILE(path = tensor<string, []>("@model_path/weights/weight.bin"), offset = tensor<uint64, []>(5071296)))];
            tensor<fp16, [1, 512, 256]> linear_37_cast_fp16 = linear(bias = lg_transformers_1_cross_attn_ffn_3_bias_to_fp16, weight = lg_transformers_1_cross_attn_ffn_3_weight_to_fp16, x = input_103_cast_fp16)[name = tensor<string, []>("linear_37_cast_fp16")];
            tensor<fp16, [1, 512, 256]> input_113_cast_fp16 = add(x = input_85_cast_fp16, y = linear_37_cast_fp16)[name = tensor<string, []>("input_113_cast_fp16")];
            tensor<bool, []> input_105_interleave_0 = const()[name = tensor<string, []>("input_105_interleave_0"), val = tensor<bool, []>(false)];
            tensor<fp16, [1, 512, 512]> input_105_cast_fp16 = concat(axis = var_31, interleave = input_105_interleave_0, values = (input_87_cast_fp16, linear_35_cast_fp16))[name = tensor<string, []>("input_105_cast_fp16")];
            tensor<fp16, [1, 512, 512]> linear_38_cast_fp16 = linear(bias = lg_transformers_1_cross_attn_ffn_0_bias_to_fp16, weight = lg_transformers_1_cross_attn_ffn_0_weight_to_fp16, x = input_105_cast_fp16)[name = tensor<string, []>("linear_38_cast_fp16")];
            tensor<int32, [1]> input_109_axes_0 = const()[name = tensor<string, []>("input_109_axes_0"), val = tensor<int32, [1]>([-1])];
            tensor<fp16, [1, 512, 512]> input_109_cast_fp16 = layer_norm(axes = input_109_axes_0, beta = lg_transformers_1_cross_attn_ffn_1_bias_to_fp16, epsilon = var_16_to_fp16, gamma = lg_transformers_1_cross_attn_ffn_1_weight_to_fp16, x = linear_38_cast_fp16)[name = tensor<string, []>("input_109_cast_fp16")];
            tensor<string, []> input_111_mode_0 = const()[name = tensor<string, []>("input_111_mode_0"), val = tensor<string, []>("EXACT")];
            tensor<fp16, [1, 512, 512]> input_111_cast_fp16 = gelu(mode = input_111_mode_0, x = input_109_cast_fp16)[name = tensor<string, []>("input_111_cast_fp16")];
            tensor<fp16, [1, 512, 256]> linear_39_cast_fp16 = linear(bias = lg_transformers_1_cross_attn_ffn_3_bias_to_fp16, weight = lg_transformers_1_cross_attn_ffn_3_weight_to_fp16, x = input_111_cast_fp16)[name = tensor<string, []>("linear_39_cast_fp16")];
            tensor<fp16, [1, 512, 256]> input_125_cast_fp16 = add(x = input_87_cast_fp16, y = linear_39_cast_fp16)[name = tensor<string, []>("input_125_cast_fp16")];
            tensor<fp16, [768, 256]> lg_transformers_2_self_attn_Wqkv_weight_to_fp16 = const()[name = tensor<string, []>("lg_transformers_2_self_attn_Wqkv_weight_to_fp16"), val = tensor<fp16, [768, 256]>(BLOBFILE(path = tensor<string, []>("@model_path/weights/weight.bin"), offset = tensor<uint64, []>(5071872)))];
            tensor<fp16, [768]> lg_transformers_2_self_attn_Wqkv_bias_to_fp16 = const()[name = tensor<string, []>("lg_transformers_2_self_attn_Wqkv_bias_to_fp16"), val = tensor<fp16, [768]>(BLOBFILE(path = tensor<string, []>("@model_path/weights/weight.bin"), offset = tensor<uint64, []>(5465152)))];
            tensor<fp16, [1, 512, 768]> linear_40_cast_fp16 = linear(bias = lg_transformers_2_self_attn_Wqkv_bias_to_fp16, weight = lg_transformers_2_self_attn_Wqkv_weight_to_fp16, x = input_113_cast_fp16)[name = tensor<string, []>("linear_40_cast_fp16")];
            tensor<int32, [5]> concat_60 = const()[name = tensor<string, []>("concat_60"), val = tensor<int32, [5]>([1, 512, 4, -1, 3])];
            tensor<fp16, [1, 512, 4, 64, 3]> var_585_cast_fp16 = reshape(shape = concat_60, x = linear_40_cast_fp16)[name = tensor<string, []>("op_585_cast_fp16")];
            tensor<int32, [5]> qkv_9_perm_0 = const()[name = tensor<string, []>("qkv_9_perm_0"), val = tensor<int32, [5]>([0, 2, 1, 3, 4])];
            tensor<int32, [5]> t_25_begin_0 = const()[name = tensor<string, []>("t_25_begin_0"), val = tensor<int32, [5]>([0, 0, 0, 0, 0])];
            tensor<int32, [5]> t_25_end_0 = const()[name = tensor<string, []>("t_25_end_0"), val = tensor<int32, [5]>([1, 4, 512, 64, 1])];
            tensor<bool, [5]> t_25_end_mask_0 = const()[name = tensor<string, []>("t_25_end_mask_0"), val = tensor<bool, [5]>([true, true, true, true, false])];
            tensor<bool, [5]> t_25_squeeze_mask_0 = const()[name = tensor<string, []>("t_25_squeeze_mask_0"), val = tensor<bool, [5]>([false, false, false, false, true])];
            tensor<fp16, [1, 4, 512, 64, 3]> qkv_9_cast_fp16 = transpose(perm = qkv_9_perm_0, x = var_585_cast_fp16)[name = tensor<string, []>("transpose_177")];
            tensor<fp16, [1, 4, 512, 64]> t_25_cast_fp16 = slice_by_index(begin = t_25_begin_0, end = t_25_end_0, end_mask = t_25_end_mask_0, squeeze_mask = t_25_squeeze_mask_0, x = qkv_9_cast_fp16)[name = tensor<string, []>("t_25_cast_fp16")];
            tensor<int32, [5]> t_27_begin_0 = const()[name = tensor<string, []>("t_27_begin_0"), val = tensor<int32, [5]>([0, 0, 0, 0, 1])];
            tensor<int32, [5]> t_27_end_0 = const()[name = tensor<string, []>("t_27_end_0"), val = tensor<int32, [5]>([1, 4, 512, 64, 2])];
            tensor<bool, [5]> t_27_end_mask_0 = const()[name = tensor<string, []>("t_27_end_mask_0"), val = tensor<bool, [5]>([true, true, true, true, false])];
            tensor<bool, [5]> t_27_squeeze_mask_0 = const()[name = tensor<string, []>("t_27_squeeze_mask_0"), val = tensor<bool, [5]>([false, false, false, false, true])];
            tensor<fp16, [1, 4, 512, 64]> t_27_cast_fp16 = slice_by_index(begin = t_27_begin_0, end = t_27_end_0, end_mask = t_27_end_mask_0, squeeze_mask = t_27_squeeze_mask_0, x = qkv_9_cast_fp16)[name = tensor<string, []>("t_27_cast_fp16")];
            tensor<int32, [5]> v_9_begin_0 = const()[name = tensor<string, []>("v_9_begin_0"), val = tensor<int32, [5]>([0, 0, 0, 0, 2])];
            tensor<int32, [5]> v_9_end_0 = const()[name = tensor<string, []>("v_9_end_0"), val = tensor<int32, [5]>([1, 4, 512, 64, 3])];
            tensor<bool, [5]> v_9_end_mask_0 = const()[name = tensor<string, []>("v_9_end_mask_0"), val = tensor<bool, [5]>([true, true, true, true, false])];
            tensor<bool, [5]> v_9_squeeze_mask_0 = const()[name = tensor<string, []>("v_9_squeeze_mask_0"), val = tensor<bool, [5]>([false, false, false, false, true])];
            tensor<fp16, [1, 4, 512, 64]> v_9_cast_fp16 = slice_by_index(begin = v_9_begin_0, end = v_9_end_0, end_mask = v_9_end_mask_0, squeeze_mask = v_9_squeeze_mask_0, x = qkv_9_cast_fp16)[name = tensor<string, []>("v_9_cast_fp16")];
            tensor<fp16, [1, 4, 512, 64]> var_591_cast_fp16 = mul(x = t_25_cast_fp16, y = var_136_cast_fp16)[name = tensor<string, []>("op_591_cast_fp16")];
            tensor<int32, [5]> concat_61 = const()[name = tensor<string, []>("concat_61"), val = tensor<int32, [5]>([1, 4, 512, -1, 2])];
            tensor<fp16, [1, 4, 512, 32, 2]> x_17_cast_fp16 = reshape(shape = concat_61, x = t_25_cast_fp16)[name = tensor<string, []>("x_17_cast_fp16")];
            tensor<int32, [2]> var_594_split_sizes_0 = const()[name = tensor<string, []>("op_594_split_sizes_0"), val = tensor<int32, [2]>([1, 1])];
            tensor<int32, []> var_594_axis_0 = const()[name = tensor<string, []>("op_594_axis_0"), val = tensor<int32, []>(-1)];
            tensor<fp16, [1, 4, 512, 32, 1]> var_594_cast_fp16_0, tensor<fp16, [1, 4, 512, 32, 1]> var_594_cast_fp16_1 = split(axis = var_594_axis_0, split_sizes = var_594_split_sizes_0, x = x_17_cast_fp16)[name = tensor<string, []>("op_594_cast_fp16")];
            tensor<int32, [1]> squeeze_16_axes_0 = const()[name = tensor<string, []>("squeeze_16_axes_0"), val = tensor<int32, [1]>([-1])];
            tensor<fp16, [1, 4, 512, 32]> squeeze_16_cast_fp16 = squeeze(axes = squeeze_16_axes_0, x = var_594_cast_fp16_0)[name = tensor<string, []>("squeeze_16_cast_fp16")];
            tensor<int32, [1]> squeeze_17_axes_0 = const()[name = tensor<string, []>("squeeze_17_axes_0"), val = tensor<int32, [1]>([-1])];
            tensor<fp16, [1, 4, 512, 32]> squeeze_17_cast_fp16 = squeeze(axes = squeeze_17_axes_0, x = var_594_cast_fp16_1)[name = tensor<string, []>("squeeze_17_cast_fp16")];
            tensor<fp16, []> const_10_promoted_to_fp16 = const()[name = tensor<string, []>("const_10_promoted_to_fp16"), val = tensor<fp16, []>(-0x1p+0)];
            tensor<fp16, [1, 4, 512, 32]> var_597_cast_fp16 = mul(x = squeeze_17_cast_fp16, y = const_10_promoted_to_fp16)[name = tensor<string, []>("op_597_cast_fp16")];
            tensor<int32, []> var_599_axis_0 = const()[name = tensor<string, []>("op_599_axis_0"), val = tensor<int32, []>(-1)];
            tensor<fp16, [1, 4, 512, 32, 2]> var_599_cast_fp16 = stack(axis = var_599_axis_0, values = (var_597_cast_fp16, squeeze_16_cast_fp16))[name = tensor<string, []>("op_599_cast_fp16")];
            tensor<int32, [4]> concat_62 = const()[name = tensor<string, []>("concat_62"), val = tensor<int32, [4]>([1, 4, 512, 64])];
            tensor<fp16, [1, 4, 512, 64]> var_600_cast_fp16 = reshape(shape = concat_62, x = var_599_cast_fp16)[name = tensor<string, []>("op_600_cast_fp16")];
            tensor<fp16, [1, 4, 512, 64]> var_602_cast_fp16 = mul(x = var_600_cast_fp16, y = var_147_cast_fp16)[name = tensor<string, []>("op_602_cast_fp16")];
            tensor<fp16, [1, 4, 512, 64]> q_9_cast_fp16 = add(x = var_591_cast_fp16, y = var_602_cast_fp16)[name = tensor<string, []>("q_9_cast_fp16")];
            tensor<fp16, [1, 4, 512, 64]> var_605_cast_fp16 = mul(x = t_27_cast_fp16, y = var_136_cast_fp16)[name = tensor<string, []>("op_605_cast_fp16")];
            tensor<int32, [5]> concat_63 = const()[name = tensor<string, []>("concat_63"), val = tensor<int32, [5]>([1, 4, 512, -1, 2])];
            tensor<fp16, [1, 4, 512, 32, 2]> x_19_cast_fp16 = reshape(shape = concat_63, x = t_27_cast_fp16)[name = tensor<string, []>("x_19_cast_fp16")];
            tensor<int32, [2]> var_608_split_sizes_0 = const()[name = tensor<string, []>("op_608_split_sizes_0"), val = tensor<int32, [2]>([1, 1])];
            tensor<int32, []> var_608_axis_0 = const()[name = tensor<string, []>("op_608_axis_0"), val = tensor<int32, []>(-1)];
            tensor<fp16, [1, 4, 512, 32, 1]> var_608_cast_fp16_0, tensor<fp16, [1, 4, 512, 32, 1]> var_608_cast_fp16_1 = split(axis = var_608_axis_0, split_sizes = var_608_split_sizes_0, x = x_19_cast_fp16)[name = tensor<string, []>("op_608_cast_fp16")];
            tensor<int32, [1]> squeeze_18_axes_0 = const()[name = tensor<string, []>("squeeze_18_axes_0"), val = tensor<int32, [1]>([-1])];
            tensor<fp16, [1, 4, 512, 32]> squeeze_18_cast_fp16 = squeeze(axes = squeeze_18_axes_0, x = var_608_cast_fp16_0)[name = tensor<string, []>("squeeze_18_cast_fp16")];
            tensor<int32, [1]> squeeze_19_axes_0 = const()[name = tensor<string, []>("squeeze_19_axes_0"), val = tensor<int32, [1]>([-1])];
            tensor<fp16, [1, 4, 512, 32]> squeeze_19_cast_fp16 = squeeze(axes = squeeze_19_axes_0, x = var_608_cast_fp16_1)[name = tensor<string, []>("squeeze_19_cast_fp16")];
            tensor<fp16, []> const_11_promoted_to_fp16 = const()[name = tensor<string, []>("const_11_promoted_to_fp16"), val = tensor<fp16, []>(-0x1p+0)];
            tensor<fp16, [1, 4, 512, 32]> var_611_cast_fp16 = mul(x = squeeze_19_cast_fp16, y = const_11_promoted_to_fp16)[name = tensor<string, []>("op_611_cast_fp16")];
            tensor<int32, []> var_613_axis_0 = const()[name = tensor<string, []>("op_613_axis_0"), val = tensor<int32, []>(-1)];
            tensor<fp16, [1, 4, 512, 32, 2]> var_613_cast_fp16 = stack(axis = var_613_axis_0, values = (var_611_cast_fp16, squeeze_18_cast_fp16))[name = tensor<string, []>("op_613_cast_fp16")];
            tensor<int32, [4]> concat_64 = const()[name = tensor<string, []>("concat_64"), val = tensor<int32, [4]>([1, 4, 512, 64])];
            tensor<fp16, [1, 4, 512, 64]> var_614_cast_fp16 = reshape(shape = concat_64, x = var_613_cast_fp16)[name = tensor<string, []>("op_614_cast_fp16")];
            tensor<fp16, [1, 4, 512, 64]> var_616_cast_fp16 = mul(x = var_614_cast_fp16, y = var_147_cast_fp16)[name = tensor<string, []>("op_616_cast_fp16")];
            tensor<fp16, [1, 4, 512, 64]> k_9_cast_fp16 = add(x = var_605_cast_fp16, y = var_616_cast_fp16)[name = tensor<string, []>("k_9_cast_fp16")];
            tensor<fp16, []> mul_4_y_0_to_fp16 = const()[name = tensor<string, []>("mul_4_y_0_to_fp16"), val = tensor<fp16, []>(0x1p-3)];
            tensor<fp16, [1, 4, 512, 64]> mul_4_cast_fp16 = mul(x = q_9_cast_fp16, y = mul_4_y_0_to_fp16)[name = tensor<string, []>("mul_4_cast_fp16")];
            tensor<bool, []> matmul_6_transpose_y_0 = const()[name = tensor<string, []>("matmul_6_transpose_y_0"), val = tensor<bool, []>(true)];
            tensor<bool, []> matmul_6_transpose_x_0 = const()[name = tensor<string, []>("matmul_6_transpose_x_0"), val = tensor<bool, []>(false)];
            tensor<fp16, [1, 4, 512, 512]> matmul_6_cast_fp16 = matmul(transpose_x = matmul_6_transpose_x_0, transpose_y = matmul_6_transpose_y_0, x = mul_4_cast_fp16, y = k_9_cast_fp16)[name = tensor<string, []>("matmul_6_cast_fp16")];
            tensor<int32, []> softmax_4_axis_0 = const()[name = tensor<string, []>("softmax_4_axis_0"), val = tensor<int32, []>(-1)];
            tensor<fp16, [1, 4, 512, 512]> softmax_4_cast_fp16 = softmax(axis = softmax_4_axis_0, x = matmul_6_cast_fp16)[name = tensor<string, []>("softmax_4_cast_fp16")];
            tensor<bool, []> context_9_transpose_x_0 = const()[name = tensor<string, []>("context_9_transpose_x_0"), val = tensor<bool, []>(false)];
            tensor<bool, []> context_9_transpose_y_0 = const()[name = tensor<string, []>("context_9_transpose_y_0"), val = tensor<bool, []>(false)];
            tensor<fp16, [1, 4, 512, 64]> context_9_cast_fp16 = matmul(transpose_x = context_9_transpose_x_0, transpose_y = context_9_transpose_y_0, x = softmax_4_cast_fp16, y = v_9_cast_fp16)[name = tensor<string, []>("context_9_cast_fp16")];
            tensor<int32, [4]> var_622_perm_0 = const()[name = tensor<string, []>("op_622_perm_0"), val = tensor<int32, [4]>([0, 2, 1, 3])];
            tensor<int32, [3]> concat_65 = const()[name = tensor<string, []>("concat_65"), val = tensor<int32, [3]>([1, 512, 256])];
            tensor<fp16, [1, 512, 4, 64]> var_622_cast_fp16 = transpose(perm = var_622_perm_0, x = context_9_cast_fp16)[name = tensor<string, []>("transpose_176")];
            tensor<fp16, [1, 512, 256]> input_115_cast_fp16 = reshape(shape = concat_65, x = var_622_cast_fp16)[name = tensor<string, []>("input_115_cast_fp16")];
            tensor<fp16, [256, 256]> lg_transformers_2_self_attn_out_proj_weight_to_fp16 = const()[name = tensor<string, []>("lg_transformers_2_self_attn_out_proj_weight_to_fp16"), val = tensor<fp16, [256, 256]>(BLOBFILE(path = tensor<string, []>("@model_path/weights/weight.bin"), offset = tensor<uint64, []>(5466752)))];
            tensor<fp16, [256]> lg_transformers_2_self_attn_out_proj_bias_to_fp16 = const()[name = tensor<string, []>("lg_transformers_2_self_attn_out_proj_bias_to_fp16"), val = tensor<fp16, [256]>(BLOBFILE(path = tensor<string, []>("@model_path/weights/weight.bin"), offset = tensor<uint64, []>(5597888)))];
            tensor<fp16, [1, 512, 256]> linear_41_cast_fp16 = linear(bias = lg_transformers_2_self_attn_out_proj_bias_to_fp16, weight = lg_transformers_2_self_attn_out_proj_weight_to_fp16, x = input_115_cast_fp16)[name = tensor<string, []>("linear_41_cast_fp16")];
            tensor<bool, []> input_117_interleave_0 = const()[name = tensor<string, []>("input_117_interleave_0"), val = tensor<bool, []>(false)];
            tensor<fp16, [1, 512, 512]> input_117_cast_fp16 = concat(axis = var_31, interleave = input_117_interleave_0, values = (input_113_cast_fp16, linear_41_cast_fp16))[name = tensor<string, []>("input_117_cast_fp16")];
            tensor<fp16, [512, 512]> lg_transformers_2_self_attn_ffn_0_weight_to_fp16 = const()[name = tensor<string, []>("lg_transformers_2_self_attn_ffn_0_weight_to_fp16"), val = tensor<fp16, [512, 512]>(BLOBFILE(path = tensor<string, []>("@model_path/weights/weight.bin"), offset = tensor<uint64, []>(5598464)))];
            tensor<fp16, [512]> lg_transformers_2_self_attn_ffn_0_bias_to_fp16 = const()[name = tensor<string, []>("lg_transformers_2_self_attn_ffn_0_bias_to_fp16"), val = tensor<fp16, [512]>(BLOBFILE(path = tensor<string, []>("@model_path/weights/weight.bin"), offset = tensor<uint64, []>(6122816)))];
            tensor<fp16, [1, 512, 512]> linear_42_cast_fp16 = linear(bias = lg_transformers_2_self_attn_ffn_0_bias_to_fp16, weight = lg_transformers_2_self_attn_ffn_0_weight_to_fp16, x = input_117_cast_fp16)[name = tensor<string, []>("linear_42_cast_fp16")];
            tensor<int32, [1]> input_121_axes_0 = const()[name = tensor<string, []>("input_121_axes_0"), val = tensor<int32, [1]>([-1])];
            tensor<fp16, [512]> lg_transformers_2_self_attn_ffn_1_weight_to_fp16 = const()[name = tensor<string, []>("lg_transformers_2_self_attn_ffn_1_weight_to_fp16"), val = tensor<fp16, [512]>(BLOBFILE(path = tensor<string, []>("@model_path/weights/weight.bin"), offset = tensor<uint64, []>(6123904)))];
            tensor<fp16, [512]> lg_transformers_2_self_attn_ffn_1_bias_to_fp16 = const()[name = tensor<string, []>("lg_transformers_2_self_attn_ffn_1_bias_to_fp16"), val = tensor<fp16, [512]>(BLOBFILE(path = tensor<string, []>("@model_path/weights/weight.bin"), offset = tensor<uint64, []>(6124992)))];
            tensor<fp16, [1, 512, 512]> input_121_cast_fp16 = layer_norm(axes = input_121_axes_0, beta = lg_transformers_2_self_attn_ffn_1_bias_to_fp16, epsilon = var_16_to_fp16, gamma = lg_transformers_2_self_attn_ffn_1_weight_to_fp16, x = linear_42_cast_fp16)[name = tensor<string, []>("input_121_cast_fp16")];
            tensor<string, []> input_123_mode_0 = const()[name = tensor<string, []>("input_123_mode_0"), val = tensor<string, []>("EXACT")];
            tensor<fp16, [1, 512, 512]> input_123_cast_fp16 = gelu(mode = input_123_mode_0, x = input_121_cast_fp16)[name = tensor<string, []>("input_123_cast_fp16")];
            tensor<fp16, [256, 512]> lg_transformers_2_self_attn_ffn_3_weight_to_fp16 = const()[name = tensor<string, []>("lg_transformers_2_self_attn_ffn_3_weight_to_fp16"), val = tensor<fp16, [256, 512]>(BLOBFILE(path = tensor<string, []>("@model_path/weights/weight.bin"), offset = tensor<uint64, []>(6126080)))];
            tensor<fp16, [256]> lg_transformers_2_self_attn_ffn_3_bias_to_fp16 = const()[name = tensor<string, []>("lg_transformers_2_self_attn_ffn_3_bias_to_fp16"), val = tensor<fp16, [256]>(BLOBFILE(path = tensor<string, []>("@model_path/weights/weight.bin"), offset = tensor<uint64, []>(6388288)))];
            tensor<fp16, [1, 512, 256]> linear_43_cast_fp16 = linear(bias = lg_transformers_2_self_attn_ffn_3_bias_to_fp16, weight = lg_transformers_2_self_attn_ffn_3_weight_to_fp16, x = input_123_cast_fp16)[name = tensor<string, []>("linear_43_cast_fp16")];
            tensor<fp16, [1, 512, 256]> input_137_cast_fp16 = add(x = input_113_cast_fp16, y = linear_43_cast_fp16)[name = tensor<string, []>("input_137_cast_fp16")];
            tensor<fp16, [1, 512, 768]> linear_44_cast_fp16 = linear(bias = lg_transformers_2_self_attn_Wqkv_bias_to_fp16, weight = lg_transformers_2_self_attn_Wqkv_weight_to_fp16, x = input_125_cast_fp16)[name = tensor<string, []>("linear_44_cast_fp16")];
            tensor<int32, [5]> concat_66 = const()[name = tensor<string, []>("concat_66"), val = tensor<int32, [5]>([1, 512, 4, -1, 3])];
            tensor<fp16, [1, 512, 4, 64, 3]> var_651_cast_fp16 = reshape(shape = concat_66, x = linear_44_cast_fp16)[name = tensor<string, []>("op_651_cast_fp16")];
            tensor<int32, [5]> qkv_11_perm_0 = const()[name = tensor<string, []>("qkv_11_perm_0"), val = tensor<int32, [5]>([0, 2, 1, 3, 4])];
            tensor<int32, [5]> t_29_begin_0 = const()[name = tensor<string, []>("t_29_begin_0"), val = tensor<int32, [5]>([0, 0, 0, 0, 0])];
            tensor<int32, [5]> t_29_end_0 = const()[name = tensor<string, []>("t_29_end_0"), val = tensor<int32, [5]>([1, 4, 512, 64, 1])];
            tensor<bool, [5]> t_29_end_mask_0 = const()[name = tensor<string, []>("t_29_end_mask_0"), val = tensor<bool, [5]>([true, true, true, true, false])];
            tensor<bool, [5]> t_29_squeeze_mask_0 = const()[name = tensor<string, []>("t_29_squeeze_mask_0"), val = tensor<bool, [5]>([false, false, false, false, true])];
            tensor<fp16, [1, 4, 512, 64, 3]> qkv_11_cast_fp16 = transpose(perm = qkv_11_perm_0, x = var_651_cast_fp16)[name = tensor<string, []>("transpose_175")];
            tensor<fp16, [1, 4, 512, 64]> t_29_cast_fp16 = slice_by_index(begin = t_29_begin_0, end = t_29_end_0, end_mask = t_29_end_mask_0, squeeze_mask = t_29_squeeze_mask_0, x = qkv_11_cast_fp16)[name = tensor<string, []>("t_29_cast_fp16")];
            tensor<int32, [5]> t_31_begin_0 = const()[name = tensor<string, []>("t_31_begin_0"), val = tensor<int32, [5]>([0, 0, 0, 0, 1])];
            tensor<int32, [5]> t_31_end_0 = const()[name = tensor<string, []>("t_31_end_0"), val = tensor<int32, [5]>([1, 4, 512, 64, 2])];
            tensor<bool, [5]> t_31_end_mask_0 = const()[name = tensor<string, []>("t_31_end_mask_0"), val = tensor<bool, [5]>([true, true, true, true, false])];
            tensor<bool, [5]> t_31_squeeze_mask_0 = const()[name = tensor<string, []>("t_31_squeeze_mask_0"), val = tensor<bool, [5]>([false, false, false, false, true])];
            tensor<fp16, [1, 4, 512, 64]> t_31_cast_fp16 = slice_by_index(begin = t_31_begin_0, end = t_31_end_0, end_mask = t_31_end_mask_0, squeeze_mask = t_31_squeeze_mask_0, x = qkv_11_cast_fp16)[name = tensor<string, []>("t_31_cast_fp16")];
            tensor<int32, [5]> v_11_begin_0 = const()[name = tensor<string, []>("v_11_begin_0"), val = tensor<int32, [5]>([0, 0, 0, 0, 2])];
            tensor<int32, [5]> v_11_end_0 = const()[name = tensor<string, []>("v_11_end_0"), val = tensor<int32, [5]>([1, 4, 512, 64, 3])];
            tensor<bool, [5]> v_11_end_mask_0 = const()[name = tensor<string, []>("v_11_end_mask_0"), val = tensor<bool, [5]>([true, true, true, true, false])];
            tensor<bool, [5]> v_11_squeeze_mask_0 = const()[name = tensor<string, []>("v_11_squeeze_mask_0"), val = tensor<bool, [5]>([false, false, false, false, true])];
            tensor<fp16, [1, 4, 512, 64]> v_11_cast_fp16 = slice_by_index(begin = v_11_begin_0, end = v_11_end_0, end_mask = v_11_end_mask_0, squeeze_mask = v_11_squeeze_mask_0, x = qkv_11_cast_fp16)[name = tensor<string, []>("v_11_cast_fp16")];
            tensor<fp16, [1, 4, 512, 64]> var_657_cast_fp16 = mul(x = t_29_cast_fp16, y = var_202_cast_fp16)[name = tensor<string, []>("op_657_cast_fp16")];
            tensor<int32, [5]> concat_67 = const()[name = tensor<string, []>("concat_67"), val = tensor<int32, [5]>([1, 4, 512, -1, 2])];
            tensor<fp16, [1, 4, 512, 32, 2]> x_21_cast_fp16 = reshape(shape = concat_67, x = t_29_cast_fp16)[name = tensor<string, []>("x_21_cast_fp16")];
            tensor<int32, [2]> var_660_split_sizes_0 = const()[name = tensor<string, []>("op_660_split_sizes_0"), val = tensor<int32, [2]>([1, 1])];
            tensor<int32, []> var_660_axis_0 = const()[name = tensor<string, []>("op_660_axis_0"), val = tensor<int32, []>(-1)];
            tensor<fp16, [1, 4, 512, 32, 1]> var_660_cast_fp16_0, tensor<fp16, [1, 4, 512, 32, 1]> var_660_cast_fp16_1 = split(axis = var_660_axis_0, split_sizes = var_660_split_sizes_0, x = x_21_cast_fp16)[name = tensor<string, []>("op_660_cast_fp16")];
            tensor<int32, [1]> squeeze_20_axes_0 = const()[name = tensor<string, []>("squeeze_20_axes_0"), val = tensor<int32, [1]>([-1])];
            tensor<fp16, [1, 4, 512, 32]> squeeze_20_cast_fp16 = squeeze(axes = squeeze_20_axes_0, x = var_660_cast_fp16_0)[name = tensor<string, []>("squeeze_20_cast_fp16")];
            tensor<int32, [1]> squeeze_21_axes_0 = const()[name = tensor<string, []>("squeeze_21_axes_0"), val = tensor<int32, [1]>([-1])];
            tensor<fp16, [1, 4, 512, 32]> squeeze_21_cast_fp16 = squeeze(axes = squeeze_21_axes_0, x = var_660_cast_fp16_1)[name = tensor<string, []>("squeeze_21_cast_fp16")];
            tensor<fp16, []> const_12_promoted_to_fp16 = const()[name = tensor<string, []>("const_12_promoted_to_fp16"), val = tensor<fp16, []>(-0x1p+0)];
            tensor<fp16, [1, 4, 512, 32]> var_663_cast_fp16 = mul(x = squeeze_21_cast_fp16, y = const_12_promoted_to_fp16)[name = tensor<string, []>("op_663_cast_fp16")];
            tensor<int32, []> var_665_axis_0 = const()[name = tensor<string, []>("op_665_axis_0"), val = tensor<int32, []>(-1)];
            tensor<fp16, [1, 4, 512, 32, 2]> var_665_cast_fp16 = stack(axis = var_665_axis_0, values = (var_663_cast_fp16, squeeze_20_cast_fp16))[name = tensor<string, []>("op_665_cast_fp16")];
            tensor<int32, [4]> concat_68 = const()[name = tensor<string, []>("concat_68"), val = tensor<int32, [4]>([1, 4, 512, 64])];
            tensor<fp16, [1, 4, 512, 64]> var_666_cast_fp16 = reshape(shape = concat_68, x = var_665_cast_fp16)[name = tensor<string, []>("op_666_cast_fp16")];
            tensor<fp16, [1, 4, 512, 64]> var_668_cast_fp16 = mul(x = var_666_cast_fp16, y = var_213_cast_fp16)[name = tensor<string, []>("op_668_cast_fp16")];
            tensor<fp16, [1, 4, 512, 64]> q_11_cast_fp16 = add(x = var_657_cast_fp16, y = var_668_cast_fp16)[name = tensor<string, []>("q_11_cast_fp16")];
            tensor<fp16, [1, 4, 512, 64]> var_671_cast_fp16 = mul(x = t_31_cast_fp16, y = var_202_cast_fp16)[name = tensor<string, []>("op_671_cast_fp16")];
            tensor<int32, [5]> concat_69 = const()[name = tensor<string, []>("concat_69"), val = tensor<int32, [5]>([1, 4, 512, -1, 2])];
            tensor<fp16, [1, 4, 512, 32, 2]> x_23_cast_fp16 = reshape(shape = concat_69, x = t_31_cast_fp16)[name = tensor<string, []>("x_23_cast_fp16")];
            tensor<int32, [2]> var_674_split_sizes_0 = const()[name = tensor<string, []>("op_674_split_sizes_0"), val = tensor<int32, [2]>([1, 1])];
            tensor<int32, []> var_674_axis_0 = const()[name = tensor<string, []>("op_674_axis_0"), val = tensor<int32, []>(-1)];
            tensor<fp16, [1, 4, 512, 32, 1]> var_674_cast_fp16_0, tensor<fp16, [1, 4, 512, 32, 1]> var_674_cast_fp16_1 = split(axis = var_674_axis_0, split_sizes = var_674_split_sizes_0, x = x_23_cast_fp16)[name = tensor<string, []>("op_674_cast_fp16")];
            tensor<int32, [1]> squeeze_22_axes_0 = const()[name = tensor<string, []>("squeeze_22_axes_0"), val = tensor<int32, [1]>([-1])];
            tensor<fp16, [1, 4, 512, 32]> squeeze_22_cast_fp16 = squeeze(axes = squeeze_22_axes_0, x = var_674_cast_fp16_0)[name = tensor<string, []>("squeeze_22_cast_fp16")];
            tensor<int32, [1]> squeeze_23_axes_0 = const()[name = tensor<string, []>("squeeze_23_axes_0"), val = tensor<int32, [1]>([-1])];
            tensor<fp16, [1, 4, 512, 32]> squeeze_23_cast_fp16 = squeeze(axes = squeeze_23_axes_0, x = var_674_cast_fp16_1)[name = tensor<string, []>("squeeze_23_cast_fp16")];
            tensor<fp16, []> const_13_promoted_to_fp16 = const()[name = tensor<string, []>("const_13_promoted_to_fp16"), val = tensor<fp16, []>(-0x1p+0)];
            tensor<fp16, [1, 4, 512, 32]> var_677_cast_fp16 = mul(x = squeeze_23_cast_fp16, y = const_13_promoted_to_fp16)[name = tensor<string, []>("op_677_cast_fp16")];
            tensor<int32, []> var_679_axis_0 = const()[name = tensor<string, []>("op_679_axis_0"), val = tensor<int32, []>(-1)];
            tensor<fp16, [1, 4, 512, 32, 2]> var_679_cast_fp16 = stack(axis = var_679_axis_0, values = (var_677_cast_fp16, squeeze_22_cast_fp16))[name = tensor<string, []>("op_679_cast_fp16")];
            tensor<int32, [4]> concat_70 = const()[name = tensor<string, []>("concat_70"), val = tensor<int32, [4]>([1, 4, 512, 64])];
            tensor<fp16, [1, 4, 512, 64]> var_680_cast_fp16 = reshape(shape = concat_70, x = var_679_cast_fp16)[name = tensor<string, []>("op_680_cast_fp16")];
            tensor<fp16, [1, 4, 512, 64]> var_682_cast_fp16 = mul(x = var_680_cast_fp16, y = var_213_cast_fp16)[name = tensor<string, []>("op_682_cast_fp16")];
            tensor<fp16, [1, 4, 512, 64]> k_11_cast_fp16 = add(x = var_671_cast_fp16, y = var_682_cast_fp16)[name = tensor<string, []>("k_11_cast_fp16")];
            tensor<fp16, []> mul_5_y_0_to_fp16 = const()[name = tensor<string, []>("mul_5_y_0_to_fp16"), val = tensor<fp16, []>(0x1p-3)];
            tensor<fp16, [1, 4, 512, 64]> mul_5_cast_fp16 = mul(x = q_11_cast_fp16, y = mul_5_y_0_to_fp16)[name = tensor<string, []>("mul_5_cast_fp16")];
            tensor<bool, []> matmul_7_transpose_y_0 = const()[name = tensor<string, []>("matmul_7_transpose_y_0"), val = tensor<bool, []>(true)];
            tensor<bool, []> matmul_7_transpose_x_0 = const()[name = tensor<string, []>("matmul_7_transpose_x_0"), val = tensor<bool, []>(false)];
            tensor<fp16, [1, 4, 512, 512]> matmul_7_cast_fp16 = matmul(transpose_x = matmul_7_transpose_x_0, transpose_y = matmul_7_transpose_y_0, x = mul_5_cast_fp16, y = k_11_cast_fp16)[name = tensor<string, []>("matmul_7_cast_fp16")];
            tensor<int32, []> softmax_5_axis_0 = const()[name = tensor<string, []>("softmax_5_axis_0"), val = tensor<int32, []>(-1)];
            tensor<fp16, [1, 4, 512, 512]> softmax_5_cast_fp16 = softmax(axis = softmax_5_axis_0, x = matmul_7_cast_fp16)[name = tensor<string, []>("softmax_5_cast_fp16")];
            tensor<bool, []> context_11_transpose_x_0 = const()[name = tensor<string, []>("context_11_transpose_x_0"), val = tensor<bool, []>(false)];
            tensor<bool, []> context_11_transpose_y_0 = const()[name = tensor<string, []>("context_11_transpose_y_0"), val = tensor<bool, []>(false)];
            tensor<fp16, [1, 4, 512, 64]> context_11_cast_fp16 = matmul(transpose_x = context_11_transpose_x_0, transpose_y = context_11_transpose_y_0, x = softmax_5_cast_fp16, y = v_11_cast_fp16)[name = tensor<string, []>("context_11_cast_fp16")];
            tensor<int32, [4]> var_688_perm_0 = const()[name = tensor<string, []>("op_688_perm_0"), val = tensor<int32, [4]>([0, 2, 1, 3])];
            tensor<int32, [3]> concat_71 = const()[name = tensor<string, []>("concat_71"), val = tensor<int32, [3]>([1, 512, 256])];
            tensor<fp16, [1, 512, 4, 64]> var_688_cast_fp16 = transpose(perm = var_688_perm_0, x = context_11_cast_fp16)[name = tensor<string, []>("transpose_174")];
            tensor<fp16, [1, 512, 256]> input_127_cast_fp16 = reshape(shape = concat_71, x = var_688_cast_fp16)[name = tensor<string, []>("input_127_cast_fp16")];
            tensor<fp16, [1, 512, 256]> linear_45_cast_fp16 = linear(bias = lg_transformers_2_self_attn_out_proj_bias_to_fp16, weight = lg_transformers_2_self_attn_out_proj_weight_to_fp16, x = input_127_cast_fp16)[name = tensor<string, []>("linear_45_cast_fp16")];
            tensor<bool, []> input_129_interleave_0 = const()[name = tensor<string, []>("input_129_interleave_0"), val = tensor<bool, []>(false)];
            tensor<fp16, [1, 512, 512]> input_129_cast_fp16 = concat(axis = var_31, interleave = input_129_interleave_0, values = (input_125_cast_fp16, linear_45_cast_fp16))[name = tensor<string, []>("input_129_cast_fp16")];
            tensor<fp16, [1, 512, 512]> linear_46_cast_fp16 = linear(bias = lg_transformers_2_self_attn_ffn_0_bias_to_fp16, weight = lg_transformers_2_self_attn_ffn_0_weight_to_fp16, x = input_129_cast_fp16)[name = tensor<string, []>("linear_46_cast_fp16")];
            tensor<int32, [1]> input_133_axes_0 = const()[name = tensor<string, []>("input_133_axes_0"), val = tensor<int32, [1]>([-1])];
            tensor<fp16, [1, 512, 512]> input_133_cast_fp16 = layer_norm(axes = input_133_axes_0, beta = lg_transformers_2_self_attn_ffn_1_bias_to_fp16, epsilon = var_16_to_fp16, gamma = lg_transformers_2_self_attn_ffn_1_weight_to_fp16, x = linear_46_cast_fp16)[name = tensor<string, []>("input_133_cast_fp16")];
            tensor<string, []> input_135_mode_0 = const()[name = tensor<string, []>("input_135_mode_0"), val = tensor<string, []>("EXACT")];
            tensor<fp16, [1, 512, 512]> input_135_cast_fp16 = gelu(mode = input_135_mode_0, x = input_133_cast_fp16)[name = tensor<string, []>("input_135_cast_fp16")];
            tensor<fp16, [1, 512, 256]> linear_47_cast_fp16 = linear(bias = lg_transformers_2_self_attn_ffn_3_bias_to_fp16, weight = lg_transformers_2_self_attn_ffn_3_weight_to_fp16, x = input_135_cast_fp16)[name = tensor<string, []>("linear_47_cast_fp16")];
            tensor<fp16, [1, 512, 256]> input_139_cast_fp16 = add(x = input_125_cast_fp16, y = linear_47_cast_fp16)[name = tensor<string, []>("input_139_cast_fp16")];
            tensor<fp16, [256, 256]> lg_transformers_2_cross_attn_to_qk_weight_to_fp16 = const()[name = tensor<string, []>("lg_transformers_2_cross_attn_to_qk_weight_to_fp16"), val = tensor<fp16, [256, 256]>(BLOBFILE(path = tensor<string, []>("@model_path/weights/weight.bin"), offset = tensor<uint64, []>(6388864)))];
            tensor<fp16, [256]> lg_transformers_2_cross_attn_to_qk_bias_to_fp16 = const()[name = tensor<string, []>("lg_transformers_2_cross_attn_to_qk_bias_to_fp16"), val = tensor<fp16, [256]>(BLOBFILE(path = tensor<string, []>("@model_path/weights/weight.bin"), offset = tensor<uint64, []>(6520000)))];
            tensor<fp16, [1, 512, 256]> linear_48_cast_fp16 = linear(bias = lg_transformers_2_cross_attn_to_qk_bias_to_fp16, weight = lg_transformers_2_cross_attn_to_qk_weight_to_fp16, x = input_137_cast_fp16)[name = tensor<string, []>("linear_48_cast_fp16")];
            tensor<fp16, [1, 512, 256]> linear_49_cast_fp16 = linear(bias = lg_transformers_2_cross_attn_to_qk_bias_to_fp16, weight = lg_transformers_2_cross_attn_to_qk_weight_to_fp16, x = input_139_cast_fp16)[name = tensor<string, []>("linear_49_cast_fp16")];
            tensor<fp16, [256, 256]> lg_transformers_2_cross_attn_to_v_weight_to_fp16 = const()[name = tensor<string, []>("lg_transformers_2_cross_attn_to_v_weight_to_fp16"), val = tensor<fp16, [256, 256]>(BLOBFILE(path = tensor<string, []>("@model_path/weights/weight.bin"), offset = tensor<uint64, []>(6520576)))];
            tensor<fp16, [256]> lg_transformers_2_cross_attn_to_v_bias_to_fp16 = const()[name = tensor<string, []>("lg_transformers_2_cross_attn_to_v_bias_to_fp16"), val = tensor<fp16, [256]>(BLOBFILE(path = tensor<string, []>("@model_path/weights/weight.bin"), offset = tensor<uint64, []>(6651712)))];
            tensor<fp16, [1, 512, 256]> linear_50_cast_fp16 = linear(bias = lg_transformers_2_cross_attn_to_v_bias_to_fp16, weight = lg_transformers_2_cross_attn_to_v_weight_to_fp16, x = input_137_cast_fp16)[name = tensor<string, []>("linear_50_cast_fp16")];
            tensor<fp16, [1, 512, 256]> linear_51_cast_fp16 = linear(bias = lg_transformers_2_cross_attn_to_v_bias_to_fp16, weight = lg_transformers_2_cross_attn_to_v_weight_to_fp16, x = input_139_cast_fp16)[name = tensor<string, []>("linear_51_cast_fp16")];
            tensor<int32, [4]> concat_72 = const()[name = tensor<string, []>("concat_72"), val = tensor<int32, [4]>([1, 512, 4, -1])];
            tensor<fp16, [1, 512, 4, 64]> var_727_cast_fp16 = reshape(shape = concat_72, x = linear_48_cast_fp16)[name = tensor<string, []>("op_727_cast_fp16")];
            tensor<int32, [4]> concat_73 = const()[name = tensor<string, []>("concat_73"), val = tensor<int32, [4]>([1, 512, 4, -1])];
            tensor<fp16, [1, 512, 4, 64]> var_730_cast_fp16 = reshape(shape = concat_73, x = linear_49_cast_fp16)[name = tensor<string, []>("op_730_cast_fp16")];
            tensor<int32, [4]> concat_74 = const()[name = tensor<string, []>("concat_74"), val = tensor<int32, [4]>([1, 512, 4, -1])];
            tensor<fp16, [1, 512, 4, 64]> var_733_cast_fp16 = reshape(shape = concat_74, x = linear_50_cast_fp16)[name = tensor<string, []>("op_733_cast_fp16")];
            tensor<int32, [4]> concat_75 = const()[name = tensor<string, []>("concat_75"), val = tensor<int32, [4]>([1, 512, 4, -1])];
            tensor<fp16, [1, 512, 4, 64]> var_736_cast_fp16 = reshape(shape = concat_75, x = linear_51_cast_fp16)[name = tensor<string, []>("op_736_cast_fp16")];
            tensor<int32, [4]> var_737_perm_0 = const()[name = tensor<string, []>("op_737_perm_0"), val = tensor<int32, [4]>([0, 2, 1, 3])];
            tensor<fp16, []> var_738_to_fp16 = const()[name = tensor<string, []>("op_738_to_fp16"), val = tensor<fp16, []>(0x1.6ap-2)];
            tensor<fp16, [1, 512, 4, 64]> var_739_cast_fp16 = mul(x = var_727_cast_fp16, y = var_738_to_fp16)[name = tensor<string, []>("op_739_cast_fp16")];
            tensor<fp16, []> var_740_to_fp16 = const()[name = tensor<string, []>("op_740_to_fp16"), val = tensor<fp16, []>(0x1.6ap-2)];
            tensor<fp16, [1, 512, 4, 64]> var_741_cast_fp16 = mul(x = var_730_cast_fp16, y = var_740_to_fp16)[name = tensor<string, []>("op_741_cast_fp16")];
            tensor<bool, []> input_141_transpose_x_0 = const()[name = tensor<string, []>("input_141_transpose_x_0"), val = tensor<bool, []>(false)];
            tensor<bool, []> input_141_transpose_y_0 = const()[name = tensor<string, []>("input_141_transpose_y_0"), val = tensor<bool, []>(true)];
            tensor<int32, [4]> transpose_84_perm_0 = const()[name = tensor<string, []>("transpose_84_perm_0"), val = tensor<int32, [4]>([0, 2, -3, -1])];
            tensor<int32, [4]> transpose_85_perm_0 = const()[name = tensor<string, []>("transpose_85_perm_0"), val = tensor<int32, [4]>([0, 2, -3, -1])];
            tensor<fp16, [1, 4, 512, 64]> transpose_85 = transpose(perm = transpose_85_perm_0, x = var_741_cast_fp16)[name = tensor<string, []>("transpose_171")];
            tensor<fp16, [1, 4, 512, 64]> transpose_84 = transpose(perm = transpose_84_perm_0, x = var_739_cast_fp16)[name = tensor<string, []>("transpose_172")];
            tensor<fp16, [1, 4, 512, 512]> input_141_cast_fp16 = matmul(transpose_x = input_141_transpose_x_0, transpose_y = input_141_transpose_y_0, x = transpose_84, y = transpose_85)[name = tensor<string, []>("input_141_cast_fp16")];
            tensor<fp16, [1, 4, 512, 512]> var_744_cast_fp16 = softmax(axis = var_31, x = input_141_cast_fp16)[name = tensor<string, []>("op_744_cast_fp16")];
            tensor<int32, [4]> var_745_perm_0 = const()[name = tensor<string, []>("op_745_perm_0"), val = tensor<int32, [4]>([0, 1, -1, -2])];
            tensor<fp16, [1, 4, 512, 512]> var_745_cast_fp16 = transpose(perm = var_745_perm_0, x = input_141_cast_fp16)[name = tensor<string, []>("transpose_170")];
            tensor<fp16, [1, 4, 512, 512]> attn10_5_cast_fp16 = softmax(axis = var_31, x = var_745_cast_fp16)[name = tensor<string, []>("attn10_5_cast_fp16")];
            tensor<int32, [3]> concat_80 = const()[name = tensor<string, []>("concat_80"), val = tensor<int32, [3]>([4, 512, 512])];
            tensor<fp16, [4, 512, 512]> reshape_10_cast_fp16 = reshape(shape = concat_80, x = var_744_cast_fp16)[name = tensor<string, []>("reshape_10_cast_fp16")];
            tensor<int32, [3]> concat_81 = const()[name = tensor<string, []>("concat_81"), val = tensor<int32, [3]>([4, 512, 64])];
            tensor<fp16, [1, 4, 512, 64]> var_737_cast_fp16 = transpose(perm = var_737_perm_0, x = var_736_cast_fp16)[name = tensor<string, []>("transpose_173")];
            tensor<fp16, [4, 512, 64]> reshape_11_cast_fp16 = reshape(shape = concat_81, x = var_737_cast_fp16)[name = tensor<string, []>("reshape_11_cast_fp16")];
            tensor<bool, []> matmul_8_transpose_x_0 = const()[name = tensor<string, []>("matmul_8_transpose_x_0"), val = tensor<bool, []>(false)];
            tensor<bool, []> matmul_8_transpose_y_0 = const()[name = tensor<string, []>("matmul_8_transpose_y_0"), val = tensor<bool, []>(false)];
            tensor<fp16, [4, 512, 64]> matmul_8_cast_fp16 = matmul(transpose_x = matmul_8_transpose_x_0, transpose_y = matmul_8_transpose_y_0, x = reshape_10_cast_fp16, y = reshape_11_cast_fp16)[name = tensor<string, []>("matmul_8_cast_fp16")];
            tensor<int32, [4]> concat_85 = const()[name = tensor<string, []>("concat_85"), val = tensor<int32, [4]>([1, 4, 512, 64])];
            tensor<fp16, [1, 4, 512, 64]> reshape_12_cast_fp16 = reshape(shape = concat_85, x = matmul_8_cast_fp16)[name = tensor<string, []>("reshape_12_cast_fp16")];
            tensor<int32, [4]> transpose_35_perm_0 = const()[name = tensor<string, []>("transpose_35_perm_0"), val = tensor<int32, [4]>([0, 2, 1, 3])];
            tensor<bool, []> t_35_transpose_x_1 = const()[name = tensor<string, []>("t_35_transpose_x_1"), val = tensor<bool, []>(false)];
            tensor<bool, []> t_35_transpose_y_1 = const()[name = tensor<string, []>("t_35_transpose_y_1"), val = tensor<bool, []>(false)];
            tensor<fp16, [1, 4, 512, 64]> transpose_35_cast_fp16 = transpose(perm = transpose_35_perm_0, x = var_733_cast_fp16)[name = tensor<string, []>("transpose_169")];
            tensor<fp16, [1, 4, 512, 64]> t_35_cast_fp16 = matmul(transpose_x = t_35_transpose_x_1, transpose_y = t_35_transpose_y_1, x = attn10_5_cast_fp16, y = transpose_35_cast_fp16)[name = tensor<string, []>("t_35_cast_fp16")];
            tensor<int32, [4]> var_753_perm_0 = const()[name = tensor<string, []>("op_753_perm_0"), val = tensor<int32, [4]>([0, 2, 1, 3])];
            tensor<int32, [3]> concat_86 = const()[name = tensor<string, []>("concat_86"), val = tensor<int32, [3]>([1, 512, 256])];
            tensor<fp16, [1, 512, 4, 64]> var_753_cast_fp16 = transpose(perm = var_753_perm_0, x = reshape_12_cast_fp16)[name = tensor<string, []>("transpose_168")];
            tensor<fp16, [1, 512, 256]> input_145_cast_fp16 = reshape(shape = concat_86, x = var_753_cast_fp16)[name = tensor<string, []>("input_145_cast_fp16")];
            tensor<int32, [4]> var_755_perm_0 = const()[name = tensor<string, []>("op_755_perm_0"), val = tensor<int32, [4]>([0, 2, 1, 3])];
            tensor<int32, [3]> concat_87 = const()[name = tensor<string, []>("concat_87"), val = tensor<int32, [3]>([1, 512, 256])];
            tensor<fp16, [1, 512, 4, 64]> var_755_cast_fp16 = transpose(perm = var_755_perm_0, x = t_35_cast_fp16)[name = tensor<string, []>("transpose_167")];
            tensor<fp16, [1, 512, 256]> input_147_cast_fp16 = reshape(shape = concat_87, x = var_755_cast_fp16)[name = tensor<string, []>("input_147_cast_fp16")];
            tensor<fp16, [256, 256]> lg_transformers_2_cross_attn_to_out_weight_to_fp16 = const()[name = tensor<string, []>("lg_transformers_2_cross_attn_to_out_weight_to_fp16"), val = tensor<fp16, [256, 256]>(BLOBFILE(path = tensor<string, []>("@model_path/weights/weight.bin"), offset = tensor<uint64, []>(6652288)))];
            tensor<fp16, [256]> lg_transformers_2_cross_attn_to_out_bias_to_fp16 = const()[name = tensor<string, []>("lg_transformers_2_cross_attn_to_out_bias_to_fp16"), val = tensor<fp16, [256]>(BLOBFILE(path = tensor<string, []>("@model_path/weights/weight.bin"), offset = tensor<uint64, []>(6783424)))];
            tensor<fp16, [1, 512, 256]> linear_52_cast_fp16 = linear(bias = lg_transformers_2_cross_attn_to_out_bias_to_fp16, weight = lg_transformers_2_cross_attn_to_out_weight_to_fp16, x = input_145_cast_fp16)[name = tensor<string, []>("linear_52_cast_fp16")];
            tensor<fp16, [1, 512, 256]> linear_53_cast_fp16 = linear(bias = lg_transformers_2_cross_attn_to_out_bias_to_fp16, weight = lg_transformers_2_cross_attn_to_out_weight_to_fp16, x = input_147_cast_fp16)[name = tensor<string, []>("linear_53_cast_fp16")];
            tensor<bool, []> input_149_interleave_0 = const()[name = tensor<string, []>("input_149_interleave_0"), val = tensor<bool, []>(false)];
            tensor<fp16, [1, 512, 512]> input_149_cast_fp16 = concat(axis = var_31, interleave = input_149_interleave_0, values = (input_137_cast_fp16, linear_52_cast_fp16))[name = tensor<string, []>("input_149_cast_fp16")];
            tensor<fp16, [512, 512]> lg_transformers_2_cross_attn_ffn_0_weight_to_fp16 = const()[name = tensor<string, []>("lg_transformers_2_cross_attn_ffn_0_weight_to_fp16"), val = tensor<fp16, [512, 512]>(BLOBFILE(path = tensor<string, []>("@model_path/weights/weight.bin"), offset = tensor<uint64, []>(6784000)))];
            tensor<fp16, [512]> lg_transformers_2_cross_attn_ffn_0_bias_to_fp16 = const()[name = tensor<string, []>("lg_transformers_2_cross_attn_ffn_0_bias_to_fp16"), val = tensor<fp16, [512]>(BLOBFILE(path = tensor<string, []>("@model_path/weights/weight.bin"), offset = tensor<uint64, []>(7308352)))];
…
            tensor<fp16, [1, 4, 512, 64]> k_cast_fp16 = add(x = var_2033_cast_fp16, y = var_2044_cast_fp16)[name = tensor<string, []>("k_cast_fp16")];
            tensor<fp16, []> mul_17_y_0_to_fp16 = const()[name = tensor<string, []>("mul_17_y_0_to_fp16"), val = tensor<fp16, []>(0x1p-3)];
            tensor<fp16, [1, 4, 512, 64]> mul_17_cast_fp16 = mul(x = q_cast_fp16, y = mul_17_y_0_to_fp16)[name = tensor<string, []>("mul_17_cast_fp16")];
            tensor<bool, []> matmul_25_transpose_y_0 = const()[name = tensor<string, []>("matmul_25_transpose_y_0"), val = tensor<bool, []>(true)];
            tensor<bool, []> matmul_25_transpose_x_0 = const()[name = tensor<string, []>("matmul_25_transpose_x_0"), val = tensor<bool, []>(false)];
            tensor<fp16, [1, 4, 512, 512]> matmul_25_cast_fp16 = matmul(transpose_x = matmul_25_transpose_x_0, transpose_y = matmul_25_transpose_y_0, x = mul_17_cast_fp16, y = k_cast_fp16)[name = tensor<string, []>("matmul_25_cast_fp16")];
            tensor<int32, []> softmax_17_axis_0 = const()[name = tensor<string, []>("softmax_17_axis_0"), val = tensor<int32, []>(-1)];
            tensor<fp16, [1, 4, 512, 512]> softmax_17_cast_fp16 = softmax(axis = softmax_17_axis_0, x = matmul_25_cast_fp16)[name = tensor<string, []>("softmax_17_cast_fp16")];
            tensor<bool, []> context_transpose_x_0 = const()[name = tensor<string, []>("context_transpose_x_0"), val = tensor<bool, []>(false)];
            tensor<bool, []> context_transpose_y_0 = const()[name = tensor<string, []>("context_transpose_y_0"), val = tensor<bool, []>(false)];
            tensor<fp16, [1, 4, 512, 64]> context_cast_fp16 = matmul(transpose_x = context_transpose_x_0, transpose_y = context_transpose_y_0, x = softmax_17_cast_fp16, y = v_cast_fp16)[name = tensor<string, []>("context_cast_fp16")];
            tensor<int32, [4]> var_2050_perm_0 = const()[name = tensor<string, []>("op_2050_perm_0"), val = tensor<int32, [4]>([0, 2, 1, 3])];
            tensor<int32, [3]> concat_239 = const()[name = tensor<string, []>("concat_239"), val = tensor<int32, [3]>([1, 512, 256])];
            tensor<fp16, [1, 512, 4, 64]> var_2050_cast_fp16 = transpose(perm = var_2050_perm_0, x = context_cast_fp16)[name = tensor<string, []>("transpose_108")];
            tensor<fp16, [1, 512, 256]> input_439_cast_fp16 = reshape(shape = concat_239, x = var_2050_cast_fp16)[name = tensor<string, []>("input_439_cast_fp16")];
            tensor<fp16, [1, 512, 256]> linear_153_cast_fp16 = linear(bias = lg_transformers_8_self_attn_out_proj_bias_to_fp16, weight = lg_transformers_8_self_attn_out_proj_weight_to_fp16, x = input_439_cast_fp16)[name = tensor<string, []>("linear_153_cast_fp16")];
            tensor<bool, []> input_441_interleave_0 = const()[name = tensor<string, []>("input_441_interleave_0"), val = tensor<bool, []>(false)];
            tensor<fp16, [1, 512, 512]> input_441_cast_fp16 = concat(axis = var_31, interleave = input_441_interleave_0, values = (input_437_cast_fp16, linear_153_cast_fp16))[name = tensor<string, []>("input_441_cast_fp16")];
            tensor<fp16, [1, 512, 512]> linear_154_cast_fp16 = linear(bias = lg_transformers_8_self_attn_ffn_0_bias_to_fp16, weight = lg_transformers_8_self_attn_ffn_0_weight_to_fp16, x = input_441_cast_fp16)[name = tensor<string, []>("linear_154_cast_fp16")];
            tensor<int32, [1]> input_445_axes_0 = const()[name = tensor<string, []>("input_445_axes_0"), val = tensor<int32, [1]>([-1])];
            tensor<fp16, [1, 512, 512]> input_445_cast_fp16 = layer_norm(axes = input_445_axes_0, beta = lg_transformers_8_self_attn_ffn_1_bias_to_fp16, epsilon = var_16_to_fp16, gamma = lg_transformers_8_self_attn_ffn_1_weight_to_fp16, x = linear_154_cast_fp16)[name = tensor<string, []>("input_445_cast_fp16")];
            tensor<string, []> input_447_mode_0 = const()[name = tensor<string, []>("input_447_mode_0"), val = tensor<string, []>("EXACT")];
            tensor<fp16, [1, 512, 512]> input_447_cast_fp16 = gelu(mode = input_447_mode_0, x = input_445_cast_fp16)[name = tensor<string, []>("input_447_cast_fp16")];
            tensor<fp16, [1, 512, 256]> linear_155_cast_fp16 = linear(bias = lg_transformers_8_self_attn_ffn_3_bias_to_fp16, weight = lg_transformers_8_self_attn_ffn_3_weight_to_fp16, x = input_447_cast_fp16)[name = tensor<string, []>("linear_155_cast_fp16")];
            tensor<fp16, [1, 512, 256]> input_451_cast_fp16 = add(x = input_437_cast_fp16, y = linear_155_cast_fp16)[name = tensor<string, []>("input_451_cast_fp16")];
            tensor<fp16, [256, 256]> lg_transformers_8_cross_attn_to_qk_weight_to_fp16 = const()[name = tensor<string, []>("lg_transformers_8_cross_attn_to_qk_weight_to_fp16"), val = tensor<fp16, [256, 256]>(BLOBFILE(path = tensor<string, []>("@model_path/weights/weight.bin"), offset = tensor<uint64, []>(21404032)))];
            tensor<fp16, [256]> lg_transformers_8_cross_attn_to_qk_bias_to_fp16 = const()[name = tensor<string, []>("lg_transformers_8_cross_attn_to_qk_bias_to_fp16"), val = tensor<fp16, [256]>(BLOBFILE(path = tensor<string, []>("@model_path/weights/weight.bin"), offset = tensor<uint64, []>(21535168)))];
            tensor<fp16, [1, 512, 256]> linear_156_cast_fp16 = linear(bias = lg_transformers_8_cross_attn_to_qk_bias_to_fp16, weight = lg_transformers_8_cross_attn_to_qk_weight_to_fp16, x = input_449_cast_fp16)[name = tensor<string, []>("linear_156_cast_fp16")];
            tensor<fp16, [1, 512, 256]> linear_157_cast_fp16 = linear(bias = lg_transformers_8_cross_attn_to_qk_bias_to_fp16, weight = lg_transformers_8_cross_attn_to_qk_weight_to_fp16, x = input_451_cast_fp16)[name = tensor<string, []>("linear_157_cast_fp16")];
            tensor<fp16, [256, 256]> lg_transformers_8_cross_attn_to_v_weight_to_fp16 = const()[name = tensor<string, []>("lg_transformers_8_cross_attn_to_v_weight_to_fp16"), val = tensor<fp16, [256, 256]>(BLOBFILE(path = tensor<string, []>("@model_path/weights/weight.bin"), offset = tensor<uint64, []>(21535744)))];
            tensor<fp16, [256]> lg_transformers_8_cross_attn_to_v_bias_to_fp16 = const()[name = tensor<string, []>("lg_transformers_8_cross_attn_to_v_bias_to_fp16"), val = tensor<fp16, [256]>(BLOBFILE(path = tensor<string, []>("@model_path/weights/weight.bin"), offset = tensor<uint64, []>(21666880)))];
            tensor<fp16, [1, 512, 256]> linear_158_cast_fp16 = linear(bias = lg_transformers_8_cross_attn_to_v_bias_to_fp16, weight = lg_transformers_8_cross_attn_to_v_weight_to_fp16, x = input_449_cast_fp16)[name = tensor<string, []>("linear_158_cast_fp16")];
            tensor<fp16, [1, 512, 256]> linear_159_cast_fp16 = linear(bias = lg_transformers_8_cross_attn_to_v_bias_to_fp16, weight = lg_transformers_8_cross_attn_to_v_weight_to_fp16, x = input_451_cast_fp16)[name = tensor<string, []>("linear_159_cast_fp16")];
            tensor<int32, [4]> concat_240 = const()[name = tensor<string, []>("concat_240"), val = tensor<int32, [4]>([1, 512, 4, -1])];
            tensor<fp16, [1, 512, 4, 64]> var_2089_cast_fp16 = reshape(shape = concat_240, x = linear_156_cast_fp16)[name = tensor<string, []>("op_2089_cast_fp16")];
            tensor<int32, [4]> concat_241 = const()[name = tensor<string, []>("concat_241"), val = tensor<int32, [4]>([1, 512, 4, -1])];
            tensor<fp16, [1, 512, 4, 64]> var_2092_cast_fp16 = reshape(shape = concat_241, x = linear_157_cast_fp16)[name = tensor<string, []>("op_2092_cast_fp16")];
            tensor<int32, [4]> concat_242 = const()[name = tensor<string, []>("concat_242"), val = tensor<int32, [4]>([1, 512, 4, -1])];
            tensor<fp16, [1, 512, 4, 64]> var_2095_cast_fp16 = reshape(shape = concat_242, x = linear_158_cast_fp16)[name = tensor<string, []>("op_2095_cast_fp16")];
            tensor<int32, [4]> concat_243 = const()[name = tensor<string, []>("concat_243"), val = tensor<int32, [4]>([1, 512, 4, -1])];
            tensor<fp16, [1, 512, 4, 64]> var_2098_cast_fp16 = reshape(shape = concat_243, x = linear_159_cast_fp16)[name = tensor<string, []>("op_2098_cast_fp16")];
            tensor<int32, [4]> var_2099_perm_0 = const()[name = tensor<string, []>("op_2099_perm_0"), val = tensor<int32, [4]>([0, 2, 1, 3])];
            tensor<fp16, []> var_2100_to_fp16 = const()[name = tensor<string, []>("op_2100_to_fp16"), val = tensor<fp16, []>(0x1.6ap-2)];
            tensor<fp16, [1, 512, 4, 64]> var_2101_cast_fp16 = mul(x = var_2089_cast_fp16, y = var_2100_to_fp16)[name = tensor<string, []>("op_2101_cast_fp16")];
            tensor<fp16, []> var_2102_to_fp16 = const()[name = tensor<string, []>("op_2102_to_fp16"), val = tensor<fp16, []>(0x1.6ap-2)];
            tensor<fp16, [1, 512, 4, 64]> var_2103_cast_fp16 = mul(x = var_2092_cast_fp16, y = var_2102_to_fp16)[name = tensor<string, []>("op_2103_cast_fp16")];
            tensor<bool, []> input_453_transpose_x_0 = const()[name = tensor<string, []>("input_453_transpose_x_0"), val = tensor<bool, []>(false)];
            tensor<bool, []> input_453_transpose_y_0 = const()[name = tensor<string, []>("input_453_transpose_y_0"), val = tensor<bool, []>(true)];
            tensor<int32, [4]> transpose_96_perm_0 = const()[name = tensor<string, []>("transpose_96_perm_0"), val = tensor<int32, [4]>([0, 2, -3, -1])];
            tensor<int32, [4]> transpose_97_perm_0 = const()[name = tensor<string, []>("transpose_97_perm_0"), val = tensor<int32, [4]>([0, 2, -3, -1])];
            tensor<fp16, [1, 4, 512, 64]> transpose_97 = transpose(perm = transpose_97_perm_0, x = var_2103_cast_fp16)[name = tensor<string, []>("transpose_105")];
            tensor<fp16, [1, 4, 512, 64]> transpose_96 = transpose(perm = transpose_96_perm_0, x = var_2101_cast_fp16)[name = tensor<string, []>("transpose_106")];
            tensor<fp16, [1, 4, 512, 512]> input_453_cast_fp16 = matmul(transpose_x = input_453_transpose_x_0, transpose_y = input_453_transpose_y_0, x = transpose_96, y = transpose_97)[name = tensor<string, []>("input_453_cast_fp16")];
            tensor<fp16, [1, 4, 512, 512]> var_2106_cast_fp16 = softmax(axis = var_31, x = input_453_cast_fp16)[name = tensor<string, []>("op_2106_cast_fp16")];
            tensor<int32, [4]> var_2107_perm_0 = const()[name = tensor<string, []>("op_2107_perm_0"), val = tensor<int32, [4]>([0, 1, -1, -2])];
            tensor<fp16, [1, 4, 512, 512]> var_2107_cast_fp16 = transpose(perm = var_2107_perm_0, x = input_453_cast_fp16)[name = tensor<string, []>("transpose_104")];
            tensor<fp16, [1, 4, 512, 512]> attn10_cast_fp16 = softmax(axis = var_31, x = var_2107_cast_fp16)[name = tensor<string, []>("attn10_cast_fp16")];
            tensor<int32, [3]> concat_248 = const()[name = tensor<string, []>("concat_248"), val = tensor<int32, [3]>([4, 512, 512])];
            tensor<fp16, [4, 512, 512]> reshape_28_cast_fp16 = reshape(shape = concat_248, x = var_2106_cast_fp16)[name = tensor<string, []>("reshape_28_cast_fp16")];
            tensor<int32, [3]> concat_249 = const()[name = tensor<string, []>("concat_249"), val = tensor<int32, [3]>([4, 512, 64])];
            tensor<fp16, [1, 4, 512, 64]> var_2099_cast_fp16 = transpose(perm = var_2099_perm_0, x = var_2098_cast_fp16)[name = tensor<string, []>("transpose_107")];
            tensor<fp16, [4, 512, 64]> reshape_29_cast_fp16 = reshape(shape = concat_249, x = var_2099_cast_fp16)[name = tensor<string, []>("reshape_29_cast_fp16")];
            tensor<bool, []> matmul_26_transpose_x_0 = const()[name = tensor<string, []>("matmul_26_transpose_x_0"), val = tensor<bool, []>(false)];
            tensor<bool, []> matmul_26_transpose_y_0 = const()[name = tensor<string, []>("matmul_26_transpose_y_0"), val = tensor<bool, []>(false)];
            tensor<fp16, [4, 512, 64]> matmul_26_cast_fp16 = matmul(transpose_x = matmul_26_transpose_x_0, transpose_y = matmul_26_transpose_y_0, x = reshape_28_cast_fp16, y = reshape_29_cast_fp16)[name = tensor<string, []>("matmul_26_cast_fp16")];
            tensor<int32, [4]> concat_253 = const()[name = tensor<string, []>("concat_253"), val = tensor<int32, [4]>([1, 4, 512, 64])];
            tensor<fp16, [1, 4, 512, 64]> reshape_30_cast_fp16 = reshape(shape = concat_253, x = matmul_26_cast_fp16)[name = tensor<string, []>("reshape_30_cast_fp16")];
            tensor<int32, [4]> transpose_59_perm_0 = const()[name = tensor<string, []>("transpose_59_perm_0"), val = tensor<int32, [4]>([0, 2, 1, 3])];
            tensor<bool, []> t_107_transpose_x_1 = const()[name = tensor<string, []>("t_107_transpose_x_1"), val = tensor<bool, []>(false)];
            tensor<bool, []> t_107_transpose_y_1 = const()[name = tensor<string, []>("t_107_transpose_y_1"), val = tensor<bool, []>(false)];
            tensor<fp16, [1, 4, 512, 64]> transpose_59_cast_fp16 = transpose(perm = transpose_59_perm_0, x = var_2095_cast_fp16)[name = tensor<string, []>("transpose_103")];
            tensor<fp16, [1, 4, 512, 64]> t_107_cast_fp16 = matmul(transpose_x = t_107_transpose_x_1, transpose_y = t_107_transpose_y_1, x = attn10_cast_fp16, y = transpose_59_cast_fp16)[name = tensor<string, []>("t_107_cast_fp16")];
            tensor<int32, [4]> var_2115_perm_0 = const()[name = tensor<string, []>("op_2115_perm_0"), val = tensor<int32, [4]>([0, 2, 1, 3])];
            tensor<int32, [3]> concat_254 = const()[name = tensor<string, []>("concat_254"), val = tensor<int32, [3]>([1, 512, 256])];
            tensor<fp16, [1, 512, 4, 64]> var_2115_cast_fp16 = transpose(perm = var_2115_perm_0, x = reshape_30_cast_fp16)[name = tensor<string, []>("transpose_102")];
            tensor<fp16, [1, 512, 256]> input_457_cast_fp16 = reshape(shape = concat_254, x = var_2115_cast_fp16)[name = tensor<string, []>("input_457_cast_fp16")];
            tensor<int32, [4]> var_2117_perm_0 = const()[name = tensor<string, []>("op_2117_perm_0"), val = tensor<int32, [4]>([0, 2, 1, 3])];
            tensor<int32, [3]> concat_255 = const()[name = tensor<string, []>("concat_255"), val = tensor<int32, [3]>([1, 512, 256])];
            tensor<fp16, [1, 512, 4, 64]> var_2117_cast_fp16 = transpose(perm = var_2117_perm_0, x = t_107_cast_fp16)[name = tensor<string, []>("transpose_101")];
            tensor<fp16, [1, 512, 256]> input_459_cast_fp16 = reshape(shape = concat_255, x = var_2117_cast_fp16)[name = tensor<string, []>("input_459_cast_fp16")];
            tensor<fp16, [256, 256]> lg_transformers_8_cross_attn_to_out_weight_to_fp16 = const()[name = tensor<string, []>("lg_transformers_8_cross_attn_to_out_weight_to_fp16"), val = tensor<fp16, [256, 256]>(BLOBFILE(path = tensor<string, []>("@model_path/weights/weight.bin"), offset = tensor<uint64, []>(21667456)))];
            tensor<fp16, [256]> lg_transformers_8_cross_attn_to_out_bias_to_fp16 = const()[name = tensor<string, []>("lg_transformers_8_cross_attn_to_out_bias_to_fp16"), val = tensor<fp16, [256]>(BLOBFILE(path = tensor<string, []>("@model_path/weights/weight.bin"), offset = tensor<uint64, []>(21798592)))];
            tensor<fp16, [1, 512, 256]> linear_160_cast_fp16 = linear(bias = lg_transformers_8_cross_attn_to_out_bias_to_fp16, weight = lg_transformers_8_cross_attn_to_out_weight_to_fp16, x = input_457_cast_fp16)[name = tensor<string, []>("linear_160_cast_fp16")];
            tensor<fp16, [1, 512, 256]> linear_161_cast_fp16 = linear(bias = lg_transformers_8_cross_attn_to_out_bias_to_fp16, weight = lg_transformers_8_cross_attn_to_out_weight_to_fp16, x = input_459_cast_fp16)[name = tensor<string, []>("linear_161_cast_fp16")];
            tensor<bool, []> input_461_interleave_0 = const()[name = tensor<string, []>("input_461_interleave_0"), val = tensor<bool, []>(false)];
            tensor<fp16, [1, 512, 512]> input_461_cast_fp16 = concat(axis = var_31, interleave = input_461_interleave_0, values = (input_449_cast_fp16, linear_160_cast_fp16))[name = tensor<string, []>("input_461_cast_fp16")];
            tensor<fp16, [512, 512]> lg_transformers_8_cross_attn_ffn_0_weight_to_fp16 = const()[name = tensor<string, []>("lg_transformers_8_cross_attn_ffn_0_weight_to_fp16"), val = tensor<fp16, [512, 512]>(BLOBFILE(path = tensor<string, []>("@model_path/weights/weight.bin"), offset = tensor<uint64, []>(21799168)))];
            tensor<fp16, [512]> lg_transformers_8_cross_attn_ffn_0_bias_to_fp16 = const()[name = tensor<string, []>("lg_transformers_8_cross_attn_ffn_0_bias_to_fp16"), val = tensor<fp16, [512]>(BLOBFILE(path = tensor<string, []>("@model_path/weights/weight.bin"), offset = tensor<uint64, []>(22323520)))];
            tensor<fp16, [1, 512, 512]> linear_162_cast_fp16 = linear(bias = lg_transformers_8_cross_attn_ffn_0_bias_to_fp16, weight = lg_transformers_8_cross_attn_ffn_0_weight_to_fp16, x = input_461_cast_fp16)[name = tensor<string, []>("linear_162_cast_fp16")];
            tensor<int32, [1]> input_465_axes_0 = const()[name = tensor<string, []>("input_465_axes_0"), val = tensor<int32, [1]>([-1])];
            tensor<fp16, [512]> lg_transformers_8_cross_attn_ffn_1_weight_to_fp16 = const()[name = tensor<string, []>("lg_transformers_8_cross_attn_ffn_1_weight_to_fp16"), val = tensor<fp16, [512]>(BLOBFILE(path = tensor<string, []>("@model_path/weights/weight.bin"), offset = tensor<uint64, []>(22324608)))];
            tensor<fp16, [512]> lg_transformers_8_cross_attn_ffn_1_bias_to_fp16 = const()[name = tensor<string, []>("lg_transformers_8_cross_attn_ffn_1_bias_to_fp16"), val = tensor<fp16, [512]>(BLOBFILE(path = tensor<string, []>("@model_path/weights/weight.bin"), offset = tensor<uint64, []>(22325696)))];
            tensor<fp16, [1, 512, 512]> input_465_cast_fp16 = layer_norm(axes = input_465_axes_0, beta = lg_transformers_8_cross_attn_ffn_1_bias_to_fp16, epsilon = var_16_to_fp16, gamma = lg_transformers_8_cross_attn_ffn_1_weight_to_fp16, x = linear_162_cast_fp16)[name = tensor<string, []>("input_465_cast_fp16")];
            tensor<string, []> input_467_mode_0 = const()[name = tensor<string, []>("input_467_mode_0"), val = tensor<string, []>("EXACT")];
            tensor<fp16, [1, 512, 512]> input_467_cast_fp16 = gelu(mode = input_467_mode_0, x = input_465_cast_fp16)[name = tensor<string, []>("input_467_cast_fp16")];
            tensor<fp16, [256, 512]> lg_transformers_8_cross_attn_ffn_3_weight_to_fp16 = const()[name = tensor<string, []>("lg_transformers_8_cross_attn_ffn_3_weight_to_fp16"), val = tensor<fp16, [256, 512]>(BLOBFILE(path = tensor<string, []>("@model_path/weights/weight.bin"), offset = tensor<uint64, []>(22326784)))];
            tensor<fp16, [256]> lg_transformers_8_cross_attn_ffn_3_bias_to_fp16 = const()[name = tensor<string, []>("lg_transformers_8_cross_attn_ffn_3_bias_to_fp16"), val = tensor<fp16, [256]>(BLOBFILE(path = tensor<string, []>("@model_path/weights/weight.bin"), offset = tensor<uint64, []>(22588992)))];
            tensor<fp16, [1, 512, 256]> linear_163_cast_fp16 = linear(bias = lg_transformers_8_cross_attn_ffn_3_bias_to_fp16, weight = lg_transformers_8_cross_attn_ffn_3_weight_to_fp16, x = input_467_cast_fp16)[name = tensor<string, []>("linear_163_cast_fp16")];
            tensor<fp16, [1, 512, 256]> input_477_cast_fp16 = add(x = input_449_cast_fp16, y = linear_163_cast_fp16)[name = tensor<string, []>("input_477_cast_fp16")];
            tensor<bool, []> input_469_interleave_0 = const()[name = tensor<string, []>("input_469_interleave_0"), val = tensor<bool, []>(false)];
            tensor<fp16, [1, 512, 512]> input_469_cast_fp16 = concat(axis = var_31, interleave = input_469_interleave_0, values = (input_451_cast_fp16, linear_161_cast_fp16))[name = tensor<string, []>("input_469_cast_fp16")];
            tensor<fp16, [1, 512, 512]> linear_164_cast_fp16 = linear(bias = lg_transformers_8_cross_attn_ffn_0_bias_to_fp16, weight = lg_transformers_8_cross_attn_ffn_0_weight_to_fp16, x = input_469_cast_fp16)[name = tensor<string, []>("linear_164_cast_fp16")];
            tensor<int32, [1]> input_473_axes_0 = const()[name = tensor<string, []>("input_473_axes_0"), val = tensor<int32, [1]>([-1])];
            tensor<fp16, [1, 512, 512]> input_473_cast_fp16 = layer_norm(axes = input_473_axes_0, beta = lg_transformers_8_cross_attn_ffn_1_bias_to_fp16, epsilon = var_16_to_fp16, gamma = lg_transformers_8_cross_attn_ffn_1_weight_to_fp16, x = linear_164_cast_fp16)[name = tensor<string, []>("input_473_cast_fp16")];
            tensor<string, []> input_475_mode_0 = const()[name = tensor<string, []>("input_475_mode_0"), val = tensor<string, []>("EXACT")];
            tensor<fp16, [1, 512, 512]> input_475_cast_fp16 = gelu(mode = input_475_mode_0, x = input_473_cast_fp16)[name = tensor<string, []>("input_475_cast_fp16")];
            tensor<fp16, [1, 512, 256]> linear_165_cast_fp16 = linear(bias = lg_transformers_8_cross_attn_ffn_3_bias_to_fp16, weight = lg_transformers_8_cross_attn_ffn_3_weight_to_fp16, x = input_475_cast_fp16)[name = tensor<string, []>("linear_165_cast_fp16")];
            tensor<fp16, [1, 512, 256]> input_479_cast_fp16 = add(x = input_451_cast_fp16, y = linear_165_cast_fp16)[name = tensor<string, []>("input_479_cast_fp16")];
            tensor<fp16, [256, 256]> lg_log_assignment_8_final_proj_weight_to_fp16 = const()[name = tensor<string, []>("lg_log_assignment_8_final_proj_weight_to_fp16"), val = tensor<fp16, [256, 256]>(BLOBFILE(path = tensor<string, []>("@model_path/weights/weight.bin"), offset = tensor<uint64, []>(22589568)))];
            tensor<fp16, [256]> lg_log_assignment_8_final_proj_bias_to_fp16 = const()[name = tensor<string, []>("lg_log_assignment_8_final_proj_bias_to_fp16"), val = tensor<fp16, [256]>(BLOBFILE(path = tensor<string, []>("@model_path/weights/weight.bin"), offset = tensor<uint64, []>(22720704)))];
            tensor<fp16, [1, 512, 256]> linear_166_cast_fp16 = linear(bias = lg_log_assignment_8_final_proj_bias_to_fp16, weight = lg_log_assignment_8_final_proj_weight_to_fp16, x = input_477_cast_fp16)[name = tensor<string, []>("linear_166_cast_fp16")];
            tensor<fp16, [1, 512, 256]> linear_167_cast_fp16 = linear(bias = lg_log_assignment_8_final_proj_bias_to_fp16, weight = lg_log_assignment_8_final_proj_weight_to_fp16, x = input_479_cast_fp16)[name = tensor<string, []>("linear_167_cast_fp16")];
            tensor<fp16, []> _inversed_2174_y_0_to_fp16 = const()[name = tensor<string, []>("_inversed_2174_y_0_to_fp16"), val = tensor<fp16, []>(0x1p-2)];
            tensor<fp16, [1, 512, 256]> _inversed_2174_cast_fp16 = mul(x = linear_166_cast_fp16, y = _inversed_2174_y_0_to_fp16)[name = tensor<string, []>("_inversed_2174_cast_fp16")];
            tensor<fp16, []> _inversed_2176_y_0_to_fp16 = const()[name = tensor<string, []>("_inversed_2176_y_0_to_fp16"), val = tensor<fp16, []>(0x1p-2)];
            tensor<fp16, [1, 512, 256]> _inversed_2176_cast_fp16 = mul(x = linear_167_cast_fp16, y = _inversed_2176_y_0_to_fp16)[name = tensor<string, []>("_inversed_2176_cast_fp16")];
            tensor<bool, []> matmul_27_transpose_x_1 = const()[name = tensor<string, []>("matmul_27_transpose_x_1"), val = tensor<bool, []>(false)];
            tensor<bool, []> matmul_27_transpose_y_1 = const()[name = tensor<string, []>("matmul_27_transpose_y_1"), val = tensor<bool, []>(true)];
            tensor<fp16, [1, 512, 512]> matmul_27_cast_fp16 = matmul(transpose_x = matmul_27_transpose_x_1, transpose_y = matmul_27_transpose_y_1, x = _inversed_2174_cast_fp16, y = _inversed_2176_cast_fp16)[name = tensor<string, []>("matmul_27_cast_fp16")];
            tensor<fp16, [1, 256]> lg_log_assignment_8_matchability_weight_to_fp16 = const()[name = tensor<string, []>("lg_log_assignment_8_matchability_weight_to_fp16"), val = tensor<fp16, [1, 256]>(BLOBFILE(path = tensor<string, []>("@model_path/weights/weight.bin"), offset = tensor<uint64, []>(22721280)))];
            tensor<fp16, [1]> lg_log_assignment_8_matchability_bias_to_fp16 = const()[name = tensor<string, []>("lg_log_assignment_8_matchability_bias_to_fp16"), val = tensor<fp16, [1]>([-0x1.c5p-7])];
            tensor<fp16, [1, 512, 1]> linear_168_cast_fp16 = linear(bias = lg_log_assignment_8_matchability_bias_to_fp16, weight = lg_log_assignment_8_matchability_weight_to_fp16, x = input_477_cast_fp16)[name = tensor<string, []>("linear_168_cast_fp16")];
            tensor<fp16, [1, 512, 1]> linear_169_cast_fp16 = linear(bias = lg_log_assignment_8_matchability_bias_to_fp16, weight = lg_log_assignment_8_matchability_weight_to_fp16, x = input_479_cast_fp16)[name = tensor<string, []>("linear_169_cast_fp16")];
            tensor<fp16, [1, 512, 1]> var_2185_cast_fp16 = sigmoid(x = linear_168_cast_fp16)[name = tensor<string, []>("op_2185_cast_fp16")];
            tensor<fp16, []> var_2186_epsilon_0_to_fp16 = const()[name = tensor<string, []>("op_2186_epsilon_0_to_fp16"), val = tensor<fp16, []>(0x0p+0)];
            tensor<fp16, [1, 512, 1]> var_2186_cast_fp16 = log(epsilon = var_2186_epsilon_0_to_fp16, x = var_2185_cast_fp16)[name = tensor<string, []>("op_2186_cast_fp16")];
            tensor<fp16, [1, 512, 1]> var_2187_cast_fp16 = sigmoid(x = linear_169_cast_fp16)[name = tensor<string, []>("op_2187_cast_fp16")];
            tensor<fp16, []> var_2188_epsilon_0_to_fp16 = const()[name = tensor<string, []>("op_2188_epsilon_0_to_fp16"), val = tensor<fp16, []>(0x0p+0)];
            tensor<fp16, [1, 512, 1]> var_2188_cast_fp16 = log(epsilon = var_2188_epsilon_0_to_fp16, x = var_2187_cast_fp16)[name = tensor<string, []>("op_2188_cast_fp16")];
            tensor<int32, [3]> var_2189_perm_0 = const()[name = tensor<string, []>("op_2189_perm_0"), val = tensor<int32, [3]>([0, 2, 1])];
            tensor<fp16, [1, 1, 512]> var_2189_cast_fp16 = transpose(perm = var_2189_perm_0, x = var_2188_cast_fp16)[name = tensor<string, []>("transpose_100")];
            tensor<fp16, [1, 512, 512]> certainties_cast_fp16 = add(x = var_2186_cast_fp16, y = var_2189_cast_fp16)[name = tensor<string, []>("certainties_cast_fp16")];
            tensor<fp16, [1, 512, 512]> scores0_softmax_cast_fp16 = softmax(axis = var_29, x = matmul_27_cast_fp16)[name = tensor<string, []>("scores0_softmax_cast_fp16")];
            tensor<fp16, []> scores0_epsilon_0_to_fp16 = const()[name = tensor<string, []>("scores0_epsilon_0_to_fp16"), val = tensor<fp16, []>(0x0p+0)];
            tensor<fp16, [1, 512, 512]> scores0_cast_fp16 = log(epsilon = scores0_epsilon_0_to_fp16, x = scores0_softmax_cast_fp16)[name = tensor<string, []>("scores0_cast_fp16")];
            tensor<int32, [3]> var_2192_perm_0 = const()[name = tensor<string, []>("op_2192_perm_0"), val = tensor<int32, [3]>([0, -1, -2])];
            tensor<fp16, [1, 512, 512]> var_2192_cast_fp16 = transpose(perm = var_2192_perm_0, x = matmul_27_cast_fp16)[name = tensor<string, []>("transpose_99")];
            tensor<fp16, [1, 512, 512]> var_2194_softmax_cast_fp16 = softmax(axis = var_29, x = var_2192_cast_fp16)[name = tensor<string, []>("op_2194_softmax_cast_fp16")];
            tensor<fp16, []> var_2194_epsilon_0_to_fp16 = const()[name = tensor<string, []>("op_2194_epsilon_0_to_fp16"), val = tensor<fp16, []>(0x0p+0)];
            tensor<fp16, [1, 512, 512]> var_2194_cast_fp16 = log(epsilon = var_2194_epsilon_0_to_fp16, x = var_2194_softmax_cast_fp16)[name = tensor<string, []>("op_2194_cast_fp16")];
            tensor<int32, [3]> scores1_perm_0 = const()[name = tensor<string, []>("scores1_perm_0"), val = tensor<int32, [3]>([0, -1, -2])];
            tensor<fp16, [1, 512, 512]> scores1_cast_fp16 = transpose(perm = scores1_perm_0, x = var_2194_cast_fp16)[name = tensor<string, []>("transpose_98")];
            tensor<fp16, [1, 512, 512]> var_2198_cast_fp16 = add(x = scores0_cast_fp16, y = scores1_cast_fp16)[name = tensor<string, []>("op_2198_cast_fp16")];
            tensor<fp16, [1, 512, 512]> var_2199_cast_fp16 = add(x = var_2198_cast_fp16, y = certainties_cast_fp16)[name = tensor<string, []>("op_2199_cast_fp16")];
            tensor<int32, [3]> concat_266 = const()[name = tensor<string, []>("concat_266"), val = tensor<int32, [3]>([0, 0, 0])];
            tensor<int32, [3]> concat_267 = const()[name = tensor<string, []>("concat_267"), val = tensor<int32, [3]>([0, 512, 512])];
            tensor<int32, [3]> scores_internal_tensor_assign_1_stride_0 = const()[name = tensor<string, []>("scores_internal_tensor_assign_1_stride_0"), val = tensor<int32, [3]>([1, 1, 1])];
            tensor<bool, [3]> scores_internal_tensor_assign_1_begin_mask_0 = const()[name = tensor<string, []>("scores_internal_tensor_assign_1_begin_mask_0"), val = tensor<bool, [3]>([false, false, false])];
            tensor<bool, [3]> scores_internal_tensor_assign_1_end_mask_0 = const()[name = tensor<string, []>("scores_internal_tensor_assign_1_end_mask_0"), val = tensor<bool, [3]>([true, false, false])];
            tensor<bool, [3]> scores_internal_tensor_assign_1_squeeze_mask_0 = const()[name = tensor<string, []>("scores_internal_tensor_assign_1_squeeze_mask_0"), val = tensor<bool, [3]>([false, false, false])];
            tensor<int32, [3]> shape_184 = const()[name = tensor<string, []>("shape_184"), val = tensor<int32, [3]>([1, 513, 513])];
            tensor<int32, []> reduce_prod_60 = const()[name = tensor<string, []>("reduce_prod_60"), val = tensor<int32, []>(263169)];
            tensor<int32, []> range_1d_0_start_0 = const()[name = tensor<string, []>("range_1d_0_start_0"), val = tensor<int32, []>(0)];
            tensor<int32, []> range_1d_0_step_0 = const()[name = tensor<string, []>("range_1d_0_step_0"), val = tensor<int32, []>(1)];
            tensor<int32, [263169]> range_1d_0 = range_1d(end = reduce_prod_60, start = range_1d_0_start_0, step = range_1d_0_step_0)[name = tensor<string, []>("range_1d_0")];
            tensor<int32, [1, 513, 513]> reshape_34 = reshape(shape = shape_184, x = range_1d_0)[name = tensor<string, []>("reshape_34")];
            tensor<int32, [1, 512, 512]> slice_by_index_404 = slice_by_index(begin = concat_266, begin_mask = scores_internal_tensor_assign_1_begin_mask_0, end = concat_267, end_mask = scores_internal_tensor_assign_1_end_mask_0, squeeze_mask = scores_internal_tensor_assign_1_squeeze_mask_0, stride = scores_internal_tensor_assign_1_stride_0, x = reshape_34)[name = tensor<string, []>("slice_by_index_404")];
            tensor<int32, [1]> reshape_35_shape_0 = const()[name = tensor<string, []>("reshape_35_shape_0"), val = tensor<int32, [1]>([-1])];
            tensor<int32, [262144]> reshape_35 = reshape(shape = reshape_35_shape_0, x = slice_by_index_404)[name = tensor<string, []>("reshape_35")];
            tensor<int32, [1]> reshape_36_shape_0 = const()[name = tensor<string, []>("reshape_36_shape_0"), val = tensor<int32, [1]>([-1])];
            tensor<fp16, [262144]> reshape_36_cast_fp16 = reshape(shape = reshape_36_shape_0, x = var_2199_cast_fp16)[name = tensor<string, []>("reshape_36_cast_fp16")];
            tensor<string, []> scatter_0_mode_0 = const()[name = tensor<string, []>("scatter_0_mode_0"), val = tensor<string, []>("update")];
            tensor<int32, []> scatter_0_axis_0 = const()[name = tensor<string, []>("scatter_0_axis_0"), val = tensor<int32, []>(0)];
            tensor<fp16, [263169]> reshape_37_to_fp16 = const()[name = tensor<string, []>("reshape_37_to_fp16"), val = tensor<fp16, [263169]>(BLOBFILE(path = tensor<string, []>("@model_path/weights/weight.bin"), offset = tensor<uint64, []>(22721856)))];
            tensor<fp16, [263169]> scatter_0_cast_fp16 = scatter(axis = scatter_0_axis_0, data = reshape_37_to_fp16, indices = reshape_35, mode = scatter_0_mode_0, updates = reshape_36_cast_fp16)[name = tensor<string, []>("scatter_0_cast_fp16")];
            tensor<int32, [1]> var_2204_axes_0 = const()[name = tensor<string, []>("op_2204_axes_0"), val = tensor<int32, [1]>([-1])];
            tensor<fp16, [1, 512]> var_2204_cast_fp16 = squeeze(axes = var_2204_axes_0, x = linear_168_cast_fp16)[name = tensor<string, []>("op_2204_cast_fp16")];
            tensor<fp16, []> const_38_promoted_to_fp16 = const()[name = tensor<string, []>("const_38_promoted_to_fp16"), val = tensor<fp16, []>(-0x1p+0)];
            tensor<fp16, [1, 512]> t_113_cast_fp16 = mul(x = var_2204_cast_fp16, y = const_38_promoted_to_fp16)[name = tensor<string, []>("t_113_cast_fp16")];
            tensor<fp16, [1, 512]> var_2206_cast_fp16 = sigmoid(x = t_113_cast_fp16)[name = tensor<string, []>("op_2206_cast_fp16")];
            tensor<fp16, []> var_2207_epsilon_0_to_fp16 = const()[name = tensor<string, []>("op_2207_epsilon_0_to_fp16"), val = tensor<fp16, []>(0x0p+0)];
            tensor<fp16, [1, 512]> var_2207_cast_fp16 = log(epsilon = var_2207_epsilon_0_to_fp16, x = var_2206_cast_fp16)[name = tensor<string, []>("op_2207_cast_fp16")];
            tensor<int32, [3]> concat_268 = const()[name = tensor<string, []>("concat_268"), val = tensor<int32, [3]>([0, 0, -1])];
            tensor<int32, [3]> concat_269 = const()[name = tensor<string, []>("concat_269"), val = tensor<int32, [3]>([0, 512, 0])];
            tensor<int32, [3]> scores_internal_tensor_assign_2_stride_0 = const()[name = tensor<string, []>("scores_internal_tensor_assign_2_stride_0"), val = tensor<int32, [3]>([1, 1, 1])];
            tensor<bool, [3]> scores_internal_tensor_assign_2_begin_mask_0 = const()[name = tensor<string, []>("scores_internal_tensor_assign_2_begin_mask_0"), val = tensor<bool, [3]>([false, false, false])];
            tensor<bool, [3]> scores_internal_tensor_assign_2_end_mask_0 = const()[name = tensor<string, []>("scores_internal_tensor_assign_2_end_mask_0"), val = tensor<bool, [3]>([true, false, false])];
            tensor<bool, [3]> scores_internal_tensor_assign_2_squeeze_mask_0 = const()[name = tensor<string, []>("scores_internal_tensor_assign_2_squeeze_mask_0"), val = tensor<bool, [3]>([false, false, true])];
            tensor<int32, [3]> shape_185 = const()[name = tensor<string, []>("shape_185"), val = tensor<int32, [3]>([1, 513, 513])];
            tensor<int32, []> reduce_prod_61 = const()[name = tensor<string, []>("reduce_prod_61"), val = tensor<int32, []>(263169)];
            tensor<int32, []> range_1d_1_start_0 = const()[name = tensor<string, []>("range_1d_1_start_0"), val = tensor<int32, []>(0)];
            tensor<int32, []> range_1d_1_step_0 = const()[name = tensor<string, []>("range_1d_1_step_0"), val = tensor<int32, []>(1)];
            tensor<int32, [263169]> range_1d_1 = range_1d(end = reduce_prod_61, start = range_1d_1_start_0, step = range_1d_1_step_0)[name = tensor<string, []>("range_1d_1")];
            tensor<int32, [1, 513, 513]> reshape_39 = reshape(shape = shape_185, x = range_1d_1)[name = tensor<string, []>("reshape_39")];
            tensor<int32, [1, 512]> slice_by_index_405 = slice_by_index(begin = concat_268, begin_mask = scores_internal_tensor_assign_2_begin_mask_0, end = concat_269, end_mask = scores_internal_tensor_assign_2_end_mask_0, squeeze_mask = scores_internal_tensor_assign_2_squeeze_mask_0, stride = scores_internal_tensor_assign_2_stride_0, x = reshape_39)[name = tensor<string, []>("slice_by_index_405")];
            tensor<int32, [1]> reshape_40_shape_0 = const()[name = tensor<string, []>("reshape_40_shape_0"), val = tensor<int32, [1]>([-1])];
            tensor<int32, [512]> reshape_40 = reshape(shape = reshape_40_shape_0, x = slice_by_index_405)[name = tensor<string, []>("reshape_40")];
            tensor<int32, [1]> reshape_41_shape_0 = const()[name = tensor<string, []>("reshape_41_shape_0"), val = tensor<int32, [1]>([-1])];
            tensor<fp16, [512]> reshape_41_cast_fp16 = reshape(shape = reshape_41_shape_0, x = var_2207_cast_fp16)[name = tensor<string, []>("reshape_41_cast_fp16")];
            tensor<string, []> scatter_1_mode_0 = const()[name = tensor<string, []>("scatter_1_mode_0"), val = tensor<string, []>("update")];
            tensor<int32, []> scatter_1_axis_0 = const()[name = tensor<string, []>("scatter_1_axis_0"), val = tensor<int32, []>(0)];
            tensor<fp16, [263169]> scatter_1_cast_fp16 = scatter(axis = scatter_1_axis_0, data = scatter_0_cast_fp16, indices = reshape_40, mode = scatter_1_mode_0, updates = reshape_41_cast_fp16)[name = tensor<string, []>("scatter_1_cast_fp16")];
            tensor<int32, [1]> var_2212_axes_0 = const()[name = tensor<string, []>("op_2212_axes_0"), val = tensor<int32, [1]>([-1])];
            tensor<fp16, [1, 512]> var_2212_cast_fp16 = squeeze(axes = var_2212_axes_0, x = linear_169_cast_fp16)[name = tensor<string, []>("op_2212_cast_fp16")];
            tensor<fp16, []> const_39_promoted_to_fp16 = const()[name = tensor<string, []>("const_39_promoted_to_fp16"), val = tensor<fp16, []>(-0x1p+0)];
            tensor<fp16, [1, 512]> t_cast_fp16 = mul(x = var_2212_cast_fp16, y = const_39_promoted_to_fp16)[name = tensor<string, []>("t_cast_fp16")];
            tensor<fp16, [1, 512]> var_2214_cast_fp16 = sigmoid(x = t_cast_fp16)[name = tensor<string, []>("op_2214_cast_fp16")];
            tensor<fp16, []> var_2215_epsilon_0_to_fp16 = const()[name = tensor<string, []>("op_2215_epsilon_0_to_fp16"), val = tensor<fp16, []>(0x0p+0)];
            tensor<fp16, [1, 512]> var_2215_cast_fp16 = log(epsilon = var_2215_epsilon_0_to_fp16, x = var_2214_cast_fp16)[name = tensor<string, []>("op_2215_cast_fp16")];
            tensor<int32, [3]> concat_270 = const()[name = tensor<string, []>("concat_270"), val = tensor<int32, [3]>([0, -1, 0])];
            tensor<int32, [3]> concat_271 = const()[name = tensor<string, []>("concat_271"), val = tensor<int32, [3]>([0, 0, 512])];
            tensor<int32, [3]> scores_internal_tensor_assign_3_stride_0 = const()[name = tensor<string, []>("scores_internal_tensor_assign_3_stride_0"), val = tensor<int32, [3]>([1, 1, 1])];
            tensor<bool, [3]> scores_internal_tensor_assign_3_begin_mask_0 = const()[name = tensor<string, []>("scores_internal_tensor_assign_3_begin_mask_0"), val = tensor<bool, [3]>([false, false, false])];
            tensor<bool, [3]> scores_internal_tensor_assign_3_end_mask_0 = const()[name = tensor<string, []>("scores_internal_tensor_assign_3_end_mask_0"), val = tensor<bool, [3]>([true, false, false])];
            tensor<bool, [3]> scores_internal_tensor_assign_3_squeeze_mask_0 = const()[name = tensor<string, []>("scores_internal_tensor_assign_3_squeeze_mask_0"), val = tensor<bool, [3]>([false, true, false])];
            tensor<int32, [3]> shape_186 = const()[name = tensor<string, []>("shape_186"), val = tensor<int32, [3]>([1, 513, 513])];
            tensor<int32, []> reduce_prod_62 = const()[name = tensor<string, []>("reduce_prod_62"), val = tensor<int32, []>(263169)];
            tensor<int32, []> range_1d_2_start_0 = const()[name = tensor<string, []>("range_1d_2_start_0"), val = tensor<int32, []>(0)];
            tensor<int32, []> range_1d_2_step_0 = const()[name = tensor<string, []>("range_1d_2_step_0"), val = tensor<int32, []>(1)];
            tensor<int32, [263169]> range_1d_2 = range_1d(end = reduce_prod_62, start = range_1d_2_start_0, step = range_1d_2_step_0)[name = tensor<string, []>("range_1d_2")];
            tensor<int32, [1, 513, 513]> reshape_44 = reshape(shape = shape_186, x = range_1d_2)[name = tensor<string, []>("reshape_44")];
            tensor<int32, [1, 512]> slice_by_index_406 = slice_by_index(begin = concat_270, begin_mask = scores_internal_tensor_assign_3_begin_mask_0, end = concat_271, end_mask = scores_internal_tensor_assign_3_end_mask_0, squeeze_mask = scores_internal_tensor_assign_3_squeeze_mask_0, stride = scores_internal_tensor_assign_3_stride_0, x = reshape_44)[name = tensor<string, []>("slice_by_index_406")];
            tensor<int32, [1]> reshape_45_shape_0 = const()[name = tensor<string, []>("reshape_45_shape_0"), val = tensor<int32, [1]>([-1])];
            tensor<int32, [512]> reshape_45 = reshape(shape = reshape_45_shape_0, x = slice_by_index_406)[name = tensor<string, []>("reshape_45")];
            tensor<int32, [1]> reshape_46_shape_0 = const()[name = tensor<string, []>("reshape_46_shape_0"), val = tensor<int32, [1]>([-1])];
            tensor<fp16, [512]> reshape_46_cast_fp16 = reshape(shape = reshape_46_shape_0, x = var_2215_cast_fp16)[name = tensor<string, []>("reshape_46_cast_fp16")];
            tensor<string, []> scatter_2_mode_0 = const()[name = tensor<string, []>("scatter_2_mode_0"), val = tensor<string, []>("update")];
            tensor<int32, []> scatter_2_axis_0 = const()[name = tensor<string, []>("scatter_2_axis_0"), val = tensor<int32, []>(0)];
            tensor<fp16, [263169]> scatter_2_cast_fp16 = scatter(axis = scatter_2_axis_0, data = scatter_1_cast_fp16, indices = reshape_45, mode = scatter_2_mode_0, updates = reshape_46_cast_fp16)[name = tensor<string, []>("scatter_2_cast_fp16")];
            tensor<fp16, [1, 513, 513]> reshape_48_cast_fp16 = reshape(shape = shape_186, x = scatter_2_cast_fp16)[name = tensor<string, []>("reshape_48_cast_fp16")];
            tensor<int32, [3]> var_2221_begin_0 = const()[name = tensor<string, []>("op_2221_begin_0"), val = tensor<int32, [3]>([0, 0, 0])];
            tensor<int32, [3]> var_2221_end_0 = const()[name = tensor<string, []>("op_2221_end_0"), val = tensor<int32, [3]>([1, 512, 513])];
            tensor<bool, [3]> var_2221_end_mask_0 = const()[name = tensor<string, []>("op_2221_end_mask_0"), val = tensor<bool, [3]>([true, false, true])];
            tensor<fp16, [1, 512, 513]> var_2221_cast_fp16 = slice_by_index(begin = var_2221_begin_0, end = var_2221_end_0, end_mask = var_2221_end_mask_0, x = reshape_48_cast_fp16)[name = tensor<string, []>("op_2221_cast_fp16")];
            tensor<int32, [3]> var_2222_begin_0 = const()[name = tensor<string, []>("op_2222_begin_0"), val = tensor<int32, [3]>([0, 0, 0])];
            tensor<int32, [3]> var_2222_end_0 = const()[name = tensor<string, []>("op_2222_end_0"), val = tensor<int32, [3]>([1, 512, 512])];
            tensor<bool, [3]> var_2222_end_mask_0 = const()[name = tensor<string, []>("op_2222_end_mask_0"), val = tensor<bool, [3]>([true, true, false])];
            tensor<fp16, [1, 512, 512]> var_2222_cast_fp16 = slice_by_index(begin = var_2222_begin_0, end = var_2222_end_0, end_mask = var_2222_end_mask_0, x = var_2221_cast_fp16)[name = tensor<string, []>("op_2222_cast_fp16")];
            tensor<int32, [1]> reduce_max_2_axes_0 = const()[name = tensor<string, []>("reduce_max_2_axes_0"), val = tensor<int32, [1]>([2])];
            tensor<bool, []> reduce_max_2_keep_dims_0 = const()[name = tensor<string, []>("reduce_max_2_keep_dims_0"), val = tensor<bool, []>(false)];
            tensor<fp16, [1, 512]> reduce_max_2_cast_fp16 = reduce_max(axes = reduce_max_2_axes_0, keep_dims = reduce_max_2_keep_dims_0, x = var_2222_cast_fp16)[name = tensor<string, []>("reduce_max_2_cast_fp16")];
            tensor<int32, []> reduce_argmax_2_axis_0 = const()[name = tensor<string, []>("reduce_argmax_2_axis_0"), val = tensor<int32, []>(2)];
            tensor<bool, []> reduce_argmax_2_keep_dims_0 = const()[name = tensor<string, []>("reduce_argmax_2_keep_dims_0"), val = tensor<bool, []>(false)];
            tensor<int32, [1, 512]> reduce_argmax_2_cast_fp16 = reduce_argmax(axis = reduce_argmax_2_axis_0, keep_dims = reduce_argmax_2_keep_dims_0, x = var_2222_cast_fp16)[name = tensor<string, []>("reduce_argmax_2_cast_fp16")];
            tensor<int32, []> reduce_argmax_3_axis_0 = const()[name = tensor<string, []>("reduce_argmax_3_axis_0"), val = tensor<int32, []>(1)];
            tensor<bool, []> reduce_argmax_3_keep_dims_0 = const()[name = tensor<string, []>("reduce_argmax_3_keep_dims_0"), val = tensor<bool, []>(false)];
            tensor<int32, [1, 512]> reduce_argmax_3_cast_fp16 = reduce_argmax(axis = reduce_argmax_3_axis_0, keep_dims = reduce_argmax_3_keep_dims_0, x = var_2222_cast_fp16)[name = tensor<string, []>("reduce_argmax_3_cast_fp16")];
            tensor<int32, [1, 512]> indices0 = const()[name = tensor<string, []>("indices0"), val = tensor<int32, [1, 512]>([[0, 1, 2, 3, 4, 5, 6, 7, 8, 9, 10, 11, 12, 13, 14, 15, 16, 17, 18, 19, 20, 21, 22, 23, 24, 25, 26, 27, 28, 29, 30, 31, 32, 33, 34, 35, 36, 37, 38, 39, 40, 41, 42, 43, 44, 45, 46, 47, 48, 49, 50, 51, 52, 53, 54, 55, 56, 57, 58, 59, 60, 61, 62, 63, 64, 65, 66, 67, 68, 69, 70, 71, 72, 73, 74, 75, 76, 77, 78, 79, 80, 81, 82, 83, 84, 85, 86, 87, 88, 89, 90, 91, 92, 93, 94, 95, 96, 97, 98, 99, 100, 101, 102, 103, 104, 105, 106, 107, 108, 109, 110, 111, 112, 113, 114, 115, 116, 117, 118, 119, 120, 121, 122, 123, 124, 125, 126, 127, 128, 129, 130, 131, 132, 133, 134, 135, 136, 137, 138, 139, 140, 141, 142, 143, 144, 145, 146, 147, 148, 149, 150, 151, 152, 153, 154, 155, 156, 157, 158, 159, 160, 161, 162, 163, 164, 165, 166, 167, 168, 169, 170, 171, 172, 173, 174, 175, 176, 177, 178, 179, 180, 181, 182, 183, 184, 185, 186, 187, 188, 189, 190, 191, 192, 193, 194, 195, 196, 197, 198, 199, 200, 201, 202, 203, 204, 205, 206, 207, 208, 209, 210, 211, 212, 213, 214, 215, 216, 217, 218, 219, 220, 221, 222, 223, 224, 225, 226, 227, 228, 229, 230, 231, 232, 233, 234, 235, 236, 237, 238, 239, 240, 241, 242, 243, 244, 245, 246, 247, 248, 249, 250, 251, 252, 253, 254, 255, 256, 257, 258, 259, 260, 261, 262, 263, 264, 265, 266, 267, 268, 269, 270, 271, 272, 273, 274, 275, 276, 277, 278, 279, 280, 281, 282, 283, 284, 285, 286, 287, 288, 289, 290, 291, 292, 293, 294, 295, 296, 297, 298, 299, 300, 301, 302, 303, 304, 305, 306, 307, 308, 309, 310, 311, 312, 313, 314, 315, 316, 317, 318, 319, 320, 321, 322, 323, 324, 325, 326, 327, 328, 329, 330, 331, 332, 333, 334, 335, 336, 337, 338, 339, 340, 341, 342, 343, 344, 345, 346, 347, 348, 349, 350, 351, 352, 353, 354, 355, 356, 357, 358, 359, 360, 361, 362, 363, 364, 365, 366, 367, 368, 369, 370, 371, 372, 373, 374, 375, 376, 377, 378, 379, 380, 381, 382, 383, 384, 385, 386, 387, 388, 389, 390, 391, 392, 393, 394, 395, 396, 397, 398, 399, 400, 401, 402, 403, 404, 405, 406, 407, 408, 409, 410, 411, 412, 413, 414, 415, 416, 417, 418, 419, 420, 421, 422, 423, 424, 425, 426, 427, 428, 429, 430, 431, 432, 433, 434, 435, 436, 437, 438, 439, 440, 441, 442, 443, 444, 445, 446, 447, 448, 449, 450, 451, 452, 453, 454, 455, 456, 457, 458, 459, 460, 461, 462, 463, 464, 465, 466, 467, 468, 469, 470, 471, 472, 473, 474, 475, 476, 477, 478, 479, 480, 481, 482, 483, 484, 485, 486, 487, 488, 489, 490, 491, 492, 493, 494, 495, 496, 497, 498, 499, 500, 501, 502, 503, 504, 505, 506, 507, 508, 509, 510, 511]])];
            tensor<int32, [1, 512]> var_2233 = gather_along_axis(axis = var_30, indices = reduce_argmax_2_cast_fp16, x = reduce_argmax_3_cast_fp16)[name = tensor<string, []>("op_2233")];
            tensor<bool, [1, 512]> mutual0 = equal(x = indices0, y = var_2233)[name = tensor<string, []>("mutual0")];
            tensor<fp16, [1, 512]> max0_exp_cast_fp16 = exp(x = reduce_max_2_cast_fp16)[name = tensor<string, []>("max0_exp_cast_fp16")];
            tensor<fp16, [1, 512]> const_43_after_broadcast_to_fp16 = const()[name = tensor<string, []>("const_43_after_broadcast_to_fp16"), val = tensor<fp16, [1, 512]>(BLOBFILE(path = tensor<string, []>("@model_path/weights/weight.bin"), offset = tensor<uint64, []>(23248320)))];
            tensor<fp16, [1, 512]> scores = select(a = max0_exp_cast_fp16, b = const_43_after_broadcast_to_fp16, cond = mutual0)[name = tensor<string, []>("mscores0_cast_fp16")];
            tensor<fp16, []> var_11_to_fp16 = const()[name = tensor<string, []>("op_11_to_fp16"), val = tensor<fp16, []>(0x1.998p-4)];
            tensor<bool, [1, 512]> var_2239_cast_fp16 = greater(x = scores, y = var_11_to_fp16)[name = tensor<string, []>("op_2239_cast_fp16")];
            tensor<bool, [1, 512]> valid0 = logical_and(x = mutual0, y = var_2239_cast_fp16)[name = tensor<string, []>("valid0")];
            tensor<int32, [1, 512]> var_31_after_broadcast = const()[name = tensor<string, []>("op_31_after_broadcast"), val = tensor<int32, [1, 512]>([[-1, -1, -1, -1, -1, -1, -1, -1, -1, -1, -1, -1, -1, -1, -1, -1, -1, -1, -1, -1, -1, -1, -1, -1, -1, -1, -1, -1, -1, -1, -1, -1, -1, -1, -1, -1, -1, -1, -1, -1, -1, -1, -1, -1, -1, -1, -1, -1, -1, -1, -1, -1, -1, -1, -1, -1, -1, -1, -1, -1, -1, -1, -1, -1, -1, -1, -1, -1, -1, -1, -1, -1, -1, -1, -1, -1, -1, -1, -1, -1, -1, -1, -1, -1, -1, -1, -1, -1, -1, -1, -1, -1, -1, -1, -1, -1, -1, -1, -1, -1, -1, -1, -1, -1, -1, -1, -1, -1, -1, -1, -1, -1, -1, -1, -1, -1, -1, -1, -1, -1, -1, -1, -1, -1, -1, -1, -1, -1, -1, -1, -1, -1, -1, -1, -1, -1, -1, -1, -1, -1, -1, -1, -1, -1, -1, -1, -1, -1, -1, -1, -1, -1, -1, -1, -1, -1, -1, -1, -1, -1, -1, -1, -1, -1, -1, -1, -1, -1, -1, -1, -1, -1, -1, -1, -1, -1, -1, -1, -1, -1, -1, -1, -1, -1, -1, -1, -1, -1, -1, -1, -1, -1, -1, -1, -1, -1, -1, -1, -1, -1, -1, -1, -1, -1, -1, -1, -1, -1, -1, -1, -1, -1, -1, -1, -1, -1, -1, -1, -1, -1, -1, -1, -1, -1, -1, -1, -1, -1, -1, -1, -1, -1, -1, -1, -1, -1, -1, -1, -1, -1, -1, -1, -1, -1, -1, -1, -1, -1, -1, -1, -1, -1, -1, -1, -1, -1, -1, -1, -1, -1, -1, -1, -1, -1, -1, -1, -1, -1, -1, -1, -1, -1, -1, -1, -1, -1, -1, -1, -1, -1, -1, -1, -1, -1, -1, -1, -1, -1, -1, -1, -1, -1, -1, -1, -1, -1, -1, -1, -1, -1, -1, -1, -1, -1, -1, -1, -1, -1, -1, -1, -1, -1, -1, -1, -1, -1, -1, -1, -1, -1, -1, -1, -1, -1, -1, -1, -1, -1, -1, -1, -1, -1, -1, -1, -1, -1, -1, -1, -1, -1, -1, -1, -1, -1, -1, -1, -1, -1, -1, -1, -1, -1, -1, -1, -1, -1, -1, -1, -1, -1, -1, -1, -1, -1, -1, -1, -1, -1, -1, -1, -1, -1, -1, -1, -1, -1, -1, -1, -1, -1, -1, -1, -1, -1, -1, -1, -1, -1, -1, -1, -1, -1, -1, -1, -1, -1, -1, -1, -1, -1, -1, -1, -1, -1, -1, -1, -1, -1, -1, -1, -1, -1, -1, -1, -1, -1, -1, -1, -1, -1, -1, -1, -1, -1, -1, -1, -1, -1, -1, -1, -1, -1, -1, -1, -1, -1, -1, -1, -1, -1, -1, -1, -1, -1, -1, -1, -1, -1, -1, -1, -1, -1, -1, -1, -1, -1, -1, -1, -1, -1, -1, -1, -1, -1, -1, -1, -1, -1, -1, -1, -1, -1, -1, -1, -1, -1, -1, -1, -1, -1, -1, -1, -1, -1, -1, -1, -1, -1, -1, -1, -1, -1, -1, -1, -1, -1, -1, -1, -1, -1, -1, -1, -1, -1, -1, -1, -1, -1, -1, -1, -1, -1]])];
            tensor<int32, [1, 512]> var_2241 = select(a = reduce_argmax_2_cast_fp16, b = var_31_after_broadcast, cond = valid0)[name = tensor<string, []>("op_2241")];
            tensor<string, []> cast_190_dtype_0 = const()[name = tensor<string, []>("cast_190_dtype_0"), val = tensor<string, []>("fp16")];
            tensor<fp16, [1, 512]> matches0 = cast(dtype = cast_190_dtype_0, x = var_2241)[name = tensor<string, []>("cast_192")];
        } -> (matches0, scores);
}